{
  "nodes": [
    {
      "op": "null", 
      "name": "data", 
      "inputs": []
    }, 
    {
      "op": "null", 
      "name": "conv1_weight", 
      "attrs": {
        "dilate": "(1, 1)", 
        "kernel": "(7, 7)", 
        "no_bias": "True", 
        "num_filter": "64", 
        "pad": "(3, 3)", 
        "stride": "(2, 2)", 
        "workspace": "4096"
      }, 
      "inputs": []
    }, 
    {
      "op": "Convolution", 
      "name": "conv1", 
      "attrs": {
        "dilate": "(1, 1)", 
        "kernel": "(7, 7)", 
        "no_bias": "True", 
        "num_filter": "64", 
        "pad": "(3, 3)", 
        "stride": "(2, 2)", 
        "workspace": "4096"
      }, 
      "inputs": [[0, 0, 0], [1, 0, 0]]
    }, 
    {
      "op": "null", 
      "name": "bnconv1_gamma", 
      "attrs": {
        "eps": "1e-06", 
        "fix_gamma": "False", 
        "momentum": "0.9995", 
        "use_global_stats": "True"
      }, 
      "inputs": []
    }, 
    {
      "op": "null", 
      "name": "bnconv1_beta", 
      "attrs": {
        "eps": "1e-06", 
        "fix_gamma": "False", 
        "momentum": "0.9995", 
        "use_global_stats": "True"
      }, 
      "inputs": []
    }, 
    {
      "op": "null", 
      "name": "bnconv1_moving_mean", 
      "attrs": {
        "__init__": "[\"zero\", {}]", 
        "eps": "1e-06", 
        "fix_gamma": "False", 
        "momentum": "0.9995", 
        "use_global_stats": "True"
      }, 
      "inputs": []
    }, 
    {
      "op": "null", 
      "name": "bnconv1_moving_var", 
      "attrs": {
        "__init__": "[\"one\", {}]", 
        "eps": "1e-06", 
        "fix_gamma": "False", 
        "momentum": "0.9995", 
        "use_global_stats": "True"
      }, 
      "inputs": []
    }, 
    {
      "op": "BatchNorm", 
      "name": "bnconv1", 
      "attrs": {
        "eps": "1e-06", 
        "fix_gamma": "False", 
        "momentum": "0.9995", 
        "use_global_stats": "True"
      }, 
      "inputs": [[2, 0, 0], [3, 0, 0], [4, 0, 0], [5, 0, 1], [6, 0, 1]]
    }, 
    {
      "op": "Activation", 
      "name": "conv1_relu", 
      "attrs": {"act_type": "relu"}, 
      "inputs": [[7, 0, 0]]
    }, 
    {
      "op": "Pad", 
      "name": "pad0", 
      "attrs": {
        "constant_value": "0", 
        "mode": "constant", 
        "pad_width": "(0, 0, 0, 0, 0, 1, 0, 1)"
      }, 
      "inputs": [[8, 0, 0]]
    }, 
    {
      "op": "Pooling", 
      "name": "pool1", 
      "attrs": {
        "kernel": "(3, 3)", 
        "pool_type": "max", 
        "stride": "(2, 2)"
      }, 
      "inputs": [[9, 0, 0]]
    }, 
    {
      "op": "null", 
      "name": "res2a_branch2a_weight", 
      "attrs": {
        "dilate": "(1, 1)", 
        "kernel": "(1, 1)", 
        "no_bias": "True", 
        "num_filter": "64", 
        "pad": "(0, 0)", 
        "stride": "(1, 1)", 
        "workspace": "4096"
      }, 
      "inputs": []
    }, 
    {
      "op": "Convolution", 
      "name": "res2a_branch2a", 
      "attrs": {
        "dilate": "(1, 1)", 
        "kernel": "(1, 1)", 
        "no_bias": "True", 
        "num_filter": "64", 
        "pad": "(0, 0)", 
        "stride": "(1, 1)", 
        "workspace": "4096"
      }, 
      "inputs": [[10, 0, 0], [11, 0, 0]]
    }, 
    {
      "op": "null", 
      "name": "bn2a_branch2a_gamma", 
      "attrs": {
        "eps": "1e-06", 
        "fix_gamma": "False", 
        "momentum": "0.9995", 
        "use_global_stats": "True"
      }, 
      "inputs": []
    }, 
    {
      "op": "null", 
      "name": "bn2a_branch2a_beta", 
      "attrs": {
        "eps": "1e-06", 
        "fix_gamma": "False", 
        "momentum": "0.9995", 
        "use_global_stats": "True"
      }, 
      "inputs": []
    }, 
    {
      "op": "null", 
      "name": "bn2a_branch2a_moving_mean", 
      "attrs": {
        "__init__": "[\"zero\", {}]", 
        "eps": "1e-06", 
        "fix_gamma": "False", 
        "momentum": "0.9995", 
        "use_global_stats": "True"
      }, 
      "inputs": []
    }, 
    {
      "op": "null", 
      "name": "bn2a_branch2a_moving_var", 
      "attrs": {
        "__init__": "[\"one\", {}]", 
        "eps": "1e-06", 
        "fix_gamma": "False", 
        "momentum": "0.9995", 
        "use_global_stats": "True"
      }, 
      "inputs": []
    }, 
    {
      "op": "BatchNorm", 
      "name": "bn2a_branch2a", 
      "attrs": {
        "eps": "1e-06", 
        "fix_gamma": "False", 
        "momentum": "0.9995", 
        "use_global_stats": "True"
      }, 
      "inputs": [[12, 0, 0], [13, 0, 0], [14, 0, 0], [15, 0, 1], [16, 0, 1]]
    }, 
    {
      "op": "Activation", 
      "name": "res2a_branch2a_relu", 
      "attrs": {"act_type": "relu"}, 
      "inputs": [[17, 0, 0]]
    }, 
    {
      "op": "null", 
      "name": "res2a_branch2b_weight", 
      "attrs": {
        "dilate": "(1, 1)", 
        "kernel": "(3, 3)", 
        "no_bias": "True", 
        "num_filter": "64", 
        "pad": "(1, 1)", 
        "stride": "(1, 1)", 
        "workspace": "4096"
      }, 
      "inputs": []
    }, 
    {
      "op": "Convolution", 
      "name": "res2a_branch2b", 
      "attrs": {
        "dilate": "(1, 1)", 
        "kernel": "(3, 3)", 
        "no_bias": "True", 
        "num_filter": "64", 
        "pad": "(1, 1)", 
        "stride": "(1, 1)", 
        "workspace": "4096"
      }, 
      "inputs": [[18, 0, 0], [19, 0, 0]]
    }, 
    {
      "op": "null", 
      "name": "bn2a_branch2b_gamma", 
      "attrs": {
        "eps": "1e-06", 
        "fix_gamma": "False", 
        "momentum": "0.9995", 
        "use_global_stats": "True"
      }, 
      "inputs": []
    }, 
    {
      "op": "null", 
      "name": "bn2a_branch2b_beta", 
      "attrs": {
        "eps": "1e-06", 
        "fix_gamma": "False", 
        "momentum": "0.9995", 
        "use_global_stats": "True"
      }, 
      "inputs": []
    }, 
    {
      "op": "null", 
      "name": "bn2a_branch2b_moving_mean", 
      "attrs": {
        "__init__": "[\"zero\", {}]", 
        "eps": "1e-06", 
        "fix_gamma": "False", 
        "momentum": "0.9995", 
        "use_global_stats": "True"
      }, 
      "inputs": []
    }, 
    {
      "op": "null", 
      "name": "bn2a_branch2b_moving_var", 
      "attrs": {
        "__init__": "[\"one\", {}]", 
        "eps": "1e-06", 
        "fix_gamma": "False", 
        "momentum": "0.9995", 
        "use_global_stats": "True"
      }, 
      "inputs": []
    }, 
    {
      "op": "BatchNorm", 
      "name": "bn2a_branch2b", 
      "attrs": {
        "eps": "1e-06", 
        "fix_gamma": "False", 
        "momentum": "0.9995", 
        "use_global_stats": "True"
      }, 
      "inputs": [[20, 0, 0], [21, 0, 0], [22, 0, 0], [23, 0, 1], [24, 0, 1]]
    }, 
    {
      "op": "Activation", 
      "name": "res2a_branch2b_relu", 
      "attrs": {"act_type": "relu"}, 
      "inputs": [[25, 0, 0]]
    }, 
    {
      "op": "null", 
      "name": "res2a_branch2c_weight", 
      "attrs": {
        "dilate": "(1, 1)", 
        "kernel": "(1, 1)", 
        "no_bias": "True", 
        "num_filter": "256", 
        "pad": "(0, 0)", 
        "stride": "(1, 1)", 
        "workspace": "4096"
      }, 
      "inputs": []
    }, 
    {
      "op": "Convolution", 
      "name": "res2a_branch2c", 
      "attrs": {
        "dilate": "(1, 1)", 
        "kernel": "(1, 1)", 
        "no_bias": "True", 
        "num_filter": "256", 
        "pad": "(0, 0)", 
        "stride": "(1, 1)", 
        "workspace": "4096"
      }, 
      "inputs": [[26, 0, 0], [27, 0, 0]]
    }, 
    {
      "op": "null", 
      "name": "bn2a_branch2c_gamma", 
      "attrs": {
        "eps": "1e-06", 
        "fix_gamma": "False", 
        "momentum": "0.9995", 
        "use_global_stats": "True"
      }, 
      "inputs": []
    }, 
    {
      "op": "null", 
      "name": "bn2a_branch2c_beta", 
      "attrs": {
        "eps": "1e-06", 
        "fix_gamma": "False", 
        "momentum": "0.9995", 
        "use_global_stats": "True"
      }, 
      "inputs": []
    }, 
    {
      "op": "null", 
      "name": "bn2a_branch2c_moving_mean", 
      "attrs": {
        "__init__": "[\"zero\", {}]", 
        "eps": "1e-06", 
        "fix_gamma": "False", 
        "momentum": "0.9995", 
        "use_global_stats": "True"
      }, 
      "inputs": []
    }, 
    {
      "op": "null", 
      "name": "bn2a_branch2c_moving_var", 
      "attrs": {
        "__init__": "[\"one\", {}]", 
        "eps": "1e-06", 
        "fix_gamma": "False", 
        "momentum": "0.9995", 
        "use_global_stats": "True"
      }, 
      "inputs": []
    }, 
    {
      "op": "BatchNorm", 
      "name": "bn2a_branch2c", 
      "attrs": {
        "eps": "1e-06", 
        "fix_gamma": "False", 
        "momentum": "0.9995", 
        "use_global_stats": "True"
      }, 
      "inputs": [[28, 0, 0], [29, 0, 0], [30, 0, 0], [31, 0, 1], [32, 0, 1]]
    }, 
    {
      "op": "null", 
      "name": "res2a_branch1_weight", 
      "attrs": {
        "dilate": "(1, 1)", 
        "kernel": "(1, 1)", 
        "no_bias": "True", 
        "num_filter": "256", 
        "pad": "(0, 0)", 
        "stride": "(1, 1)", 
        "workspace": "4096"
      }, 
      "inputs": []
    }, 
    {
      "op": "Convolution", 
      "name": "res2a_branch1", 
      "attrs": {
        "dilate": "(1, 1)", 
        "kernel": "(1, 1)", 
        "no_bias": "True", 
        "num_filter": "256", 
        "pad": "(0, 0)", 
        "stride": "(1, 1)", 
        "workspace": "4096"
      }, 
      "inputs": [[10, 0, 0], [34, 0, 0]]
    }, 
    {
      "op": "null", 
      "name": "bn2a_branch1_gamma", 
      "attrs": {
        "eps": "1e-06", 
        "fix_gamma": "False", 
        "momentum": "0.9995", 
        "use_global_stats": "True"
      }, 
      "inputs": []
    }, 
    {
      "op": "null", 
      "name": "bn2a_branch1_beta", 
      "attrs": {
        "eps": "1e-06", 
        "fix_gamma": "False", 
        "momentum": "0.9995", 
        "use_global_stats": "True"
      }, 
      "inputs": []
    }, 
    {
      "op": "null", 
      "name": "bn2a_branch1_moving_mean", 
      "attrs": {
        "__init__": "[\"zero\", {}]", 
        "eps": "1e-06", 
        "fix_gamma": "False", 
        "momentum": "0.9995", 
        "use_global_stats": "True"
      }, 
      "inputs": []
    }, 
    {
      "op": "null", 
      "name": "bn2a_branch1_moving_var", 
      "attrs": {
        "__init__": "[\"one\", {}]", 
        "eps": "1e-06", 
        "fix_gamma": "False", 
        "momentum": "0.9995", 
        "use_global_stats": "True"
      }, 
      "inputs": []
    }, 
    {
      "op": "BatchNorm", 
      "name": "bn2a_branch1", 
      "attrs": {
        "eps": "1e-06", 
        "fix_gamma": "False", 
        "momentum": "0.9995", 
        "use_global_stats": "True"
      }, 
      "inputs": [[35, 0, 0], [36, 0, 0], [37, 0, 0], [38, 0, 1], [39, 0, 1]]
    }, 
    {
      "op": "add_n", 
      "name": "res2a", 
      "attrs": {"num_args": "2"}, 
      "inputs": [[33, 0, 0], [40, 0, 0]]
    }, 
    {
      "op": "Activation", 
      "name": "res2a_relu", 
      "attrs": {"act_type": "relu"}, 
      "inputs": [[41, 0, 0]]
    }, 
    {
      "op": "null", 
      "name": "res2b_branch2a_weight", 
      "attrs": {
        "dilate": "(1, 1)", 
        "kernel": "(1, 1)", 
        "no_bias": "True", 
        "num_filter": "64", 
        "pad": "(0, 0)", 
        "stride": "(1, 1)", 
        "workspace": "4096"
      }, 
      "inputs": []
    }, 
    {
      "op": "Convolution", 
      "name": "res2b_branch2a", 
      "attrs": {
        "dilate": "(1, 1)", 
        "kernel": "(1, 1)", 
        "no_bias": "True", 
        "num_filter": "64", 
        "pad": "(0, 0)", 
        "stride": "(1, 1)", 
        "workspace": "4096"
      }, 
      "inputs": [[42, 0, 0], [43, 0, 0]]
    }, 
    {
      "op": "null", 
      "name": "bn2b_branch2a_gamma", 
      "attrs": {
        "eps": "1e-06", 
        "fix_gamma": "False", 
        "momentum": "0.9995", 
        "use_global_stats": "True"
      }, 
      "inputs": []
    }, 
    {
      "op": "null", 
      "name": "bn2b_branch2a_beta", 
      "attrs": {
        "eps": "1e-06", 
        "fix_gamma": "False", 
        "momentum": "0.9995", 
        "use_global_stats": "True"
      }, 
      "inputs": []
    }, 
    {
      "op": "null", 
      "name": "bn2b_branch2a_moving_mean", 
      "attrs": {
        "__init__": "[\"zero\", {}]", 
        "eps": "1e-06", 
        "fix_gamma": "False", 
        "momentum": "0.9995", 
        "use_global_stats": "True"
      }, 
      "inputs": []
    }, 
    {
      "op": "null", 
      "name": "bn2b_branch2a_moving_var", 
      "attrs": {
        "__init__": "[\"one\", {}]", 
        "eps": "1e-06", 
        "fix_gamma": "False", 
        "momentum": "0.9995", 
        "use_global_stats": "True"
      }, 
      "inputs": []
    }, 
    {
      "op": "BatchNorm", 
      "name": "bn2b_branch2a", 
      "attrs": {
        "eps": "1e-06", 
        "fix_gamma": "False", 
        "momentum": "0.9995", 
        "use_global_stats": "True"
      }, 
      "inputs": [[44, 0, 0], [45, 0, 0], [46, 0, 0], [47, 0, 1], [48, 0, 1]]
    }, 
    {
      "op": "Activation", 
      "name": "res2b_branch2a_relu", 
      "attrs": {"act_type": "relu"}, 
      "inputs": [[49, 0, 0]]
    }, 
    {
      "op": "null", 
      "name": "res2b_branch2b_weight", 
      "attrs": {
        "dilate": "(1, 1)", 
        "kernel": "(3, 3)", 
        "no_bias": "True", 
        "num_filter": "64", 
        "pad": "(1, 1)", 
        "stride": "(1, 1)", 
        "workspace": "4096"
      }, 
      "inputs": []
    }, 
    {
      "op": "Convolution", 
      "name": "res2b_branch2b", 
      "attrs": {
        "dilate": "(1, 1)", 
        "kernel": "(3, 3)", 
        "no_bias": "True", 
        "num_filter": "64", 
        "pad": "(1, 1)", 
        "stride": "(1, 1)", 
        "workspace": "4096"
      }, 
      "inputs": [[50, 0, 0], [51, 0, 0]]
    }, 
    {
      "op": "null", 
      "name": "bn2b_branch2b_gamma", 
      "attrs": {
        "eps": "1e-06", 
        "fix_gamma": "False", 
        "momentum": "0.9995", 
        "use_global_stats": "True"
      }, 
      "inputs": []
    }, 
    {
      "op": "null", 
      "name": "bn2b_branch2b_beta", 
      "attrs": {
        "eps": "1e-06", 
        "fix_gamma": "False", 
        "momentum": "0.9995", 
        "use_global_stats": "True"
      }, 
      "inputs": []
    }, 
    {
      "op": "null", 
      "name": "bn2b_branch2b_moving_mean", 
      "attrs": {
        "__init__": "[\"zero\", {}]", 
        "eps": "1e-06", 
        "fix_gamma": "False", 
        "momentum": "0.9995", 
        "use_global_stats": "True"
      }, 
      "inputs": []
    }, 
    {
      "op": "null", 
      "name": "bn2b_branch2b_moving_var", 
      "attrs": {
        "__init__": "[\"one\", {}]", 
        "eps": "1e-06", 
        "fix_gamma": "False", 
        "momentum": "0.9995", 
        "use_global_stats": "True"
      }, 
      "inputs": []
    }, 
    {
      "op": "BatchNorm", 
      "name": "bn2b_branch2b", 
      "attrs": {
        "eps": "1e-06", 
        "fix_gamma": "False", 
        "momentum": "0.9995", 
        "use_global_stats": "True"
      }, 
      "inputs": [[52, 0, 0], [53, 0, 0], [54, 0, 0], [55, 0, 1], [56, 0, 1]]
    }, 
    {
      "op": "Activation", 
      "name": "res2b_branch2b_relu", 
      "attrs": {"act_type": "relu"}, 
      "inputs": [[57, 0, 0]]
    }, 
    {
      "op": "null", 
      "name": "res2b_branch2c_weight", 
      "attrs": {
        "dilate": "(1, 1)", 
        "kernel": "(1, 1)", 
        "no_bias": "True", 
        "num_filter": "256", 
        "pad": "(0, 0)", 
        "stride": "(1, 1)", 
        "workspace": "4096"
      }, 
      "inputs": []
    }, 
    {
      "op": "Convolution", 
      "name": "res2b_branch2c", 
      "attrs": {
        "dilate": "(1, 1)", 
        "kernel": "(1, 1)", 
        "no_bias": "True", 
        "num_filter": "256", 
        "pad": "(0, 0)", 
        "stride": "(1, 1)", 
        "workspace": "4096"
      }, 
      "inputs": [[58, 0, 0], [59, 0, 0]]
    }, 
    {
      "op": "null", 
      "name": "bn2b_branch2c_gamma", 
      "attrs": {
        "eps": "1e-06", 
        "fix_gamma": "False", 
        "momentum": "0.9995", 
        "use_global_stats": "True"
      }, 
      "inputs": []
    }, 
    {
      "op": "null", 
      "name": "bn2b_branch2c_beta", 
      "attrs": {
        "eps": "1e-06", 
        "fix_gamma": "False", 
        "momentum": "0.9995", 
        "use_global_stats": "True"
      }, 
      "inputs": []
    }, 
    {
      "op": "null", 
      "name": "bn2b_branch2c_moving_mean", 
      "attrs": {
        "__init__": "[\"zero\", {}]", 
        "eps": "1e-06", 
        "fix_gamma": "False", 
        "momentum": "0.9995", 
        "use_global_stats": "True"
      }, 
      "inputs": []
    }, 
    {
      "op": "null", 
      "name": "bn2b_branch2c_moving_var", 
      "attrs": {
        "__init__": "[\"one\", {}]", 
        "eps": "1e-06", 
        "fix_gamma": "False", 
        "momentum": "0.9995", 
        "use_global_stats": "True"
      }, 
      "inputs": []
    }, 
    {
      "op": "BatchNorm", 
      "name": "bn2b_branch2c", 
      "attrs": {
        "eps": "1e-06", 
        "fix_gamma": "False", 
        "momentum": "0.9995", 
        "use_global_stats": "True"
      }, 
      "inputs": [[60, 0, 0], [61, 0, 0], [62, 0, 0], [63, 0, 1], [64, 0, 1]]
    }, 
    {
      "op": "add_n", 
      "name": "res2b", 
      "attrs": {"num_args": "2"}, 
      "inputs": [[42, 0, 0], [65, 0, 0]]
    }, 
    {
      "op": "Activation", 
      "name": "res2b_relu", 
      "attrs": {"act_type": "relu"}, 
      "inputs": [[66, 0, 0]]
    }, 
    {
      "op": "null", 
      "name": "res2c_branch2a_weight", 
      "attrs": {
        "dilate": "(1, 1)", 
        "kernel": "(1, 1)", 
        "no_bias": "True", 
        "num_filter": "64", 
        "pad": "(0, 0)", 
        "stride": "(1, 1)", 
        "workspace": "4096"
      }, 
      "inputs": []
    }, 
    {
      "op": "Convolution", 
      "name": "res2c_branch2a", 
      "attrs": {
        "dilate": "(1, 1)", 
        "kernel": "(1, 1)", 
        "no_bias": "True", 
        "num_filter": "64", 
        "pad": "(0, 0)", 
        "stride": "(1, 1)", 
        "workspace": "4096"
      }, 
      "inputs": [[67, 0, 0], [68, 0, 0]]
    }, 
    {
      "op": "null", 
      "name": "bn2c_branch2a_gamma", 
      "attrs": {
        "eps": "1e-06", 
        "fix_gamma": "False", 
        "momentum": "0.9995", 
        "use_global_stats": "True"
      }, 
      "inputs": []
    }, 
    {
      "op": "null", 
      "name": "bn2c_branch2a_beta", 
      "attrs": {
        "eps": "1e-06", 
        "fix_gamma": "False", 
        "momentum": "0.9995", 
        "use_global_stats": "True"
      }, 
      "inputs": []
    }, 
    {
      "op": "null", 
      "name": "bn2c_branch2a_moving_mean", 
      "attrs": {
        "__init__": "[\"zero\", {}]", 
        "eps": "1e-06", 
        "fix_gamma": "False", 
        "momentum": "0.9995", 
        "use_global_stats": "True"
      }, 
      "inputs": []
    }, 
    {
      "op": "null", 
      "name": "bn2c_branch2a_moving_var", 
      "attrs": {
        "__init__": "[\"one\", {}]", 
        "eps": "1e-06", 
        "fix_gamma": "False", 
        "momentum": "0.9995", 
        "use_global_stats": "True"
      }, 
      "inputs": []
    }, 
    {
      "op": "BatchNorm", 
      "name": "bn2c_branch2a", 
      "attrs": {
        "eps": "1e-06", 
        "fix_gamma": "False", 
        "momentum": "0.9995", 
        "use_global_stats": "True"
      }, 
      "inputs": [[69, 0, 0], [70, 0, 0], [71, 0, 0], [72, 0, 1], [73, 0, 1]]
    }, 
    {
      "op": "Activation", 
      "name": "res2c_branch2a_relu", 
      "attrs": {"act_type": "relu"}, 
      "inputs": [[74, 0, 0]]
    }, 
    {
      "op": "null", 
      "name": "res2c_branch2b_weight", 
      "attrs": {
        "dilate": "(1, 1)", 
        "kernel": "(3, 3)", 
        "no_bias": "True", 
        "num_filter": "64", 
        "pad": "(1, 1)", 
        "stride": "(1, 1)", 
        "workspace": "4096"
      }, 
      "inputs": []
    }, 
    {
      "op": "Convolution", 
      "name": "res2c_branch2b", 
      "attrs": {
        "dilate": "(1, 1)", 
        "kernel": "(3, 3)", 
        "no_bias": "True", 
        "num_filter": "64", 
        "pad": "(1, 1)", 
        "stride": "(1, 1)", 
        "workspace": "4096"
      }, 
      "inputs": [[75, 0, 0], [76, 0, 0]]
    }, 
    {
      "op": "null", 
      "name": "bn2c_branch2b_gamma", 
      "attrs": {
        "eps": "1e-06", 
        "fix_gamma": "False", 
        "momentum": "0.9995", 
        "use_global_stats": "True"
      }, 
      "inputs": []
    }, 
    {
      "op": "null", 
      "name": "bn2c_branch2b_beta", 
      "attrs": {
        "eps": "1e-06", 
        "fix_gamma": "False", 
        "momentum": "0.9995", 
        "use_global_stats": "True"
      }, 
      "inputs": []
    }, 
    {
      "op": "null", 
      "name": "bn2c_branch2b_moving_mean", 
      "attrs": {
        "__init__": "[\"zero\", {}]", 
        "eps": "1e-06", 
        "fix_gamma": "False", 
        "momentum": "0.9995", 
        "use_global_stats": "True"
      }, 
      "inputs": []
    }, 
    {
      "op": "null", 
      "name": "bn2c_branch2b_moving_var", 
      "attrs": {
        "__init__": "[\"one\", {}]", 
        "eps": "1e-06", 
        "fix_gamma": "False", 
        "momentum": "0.9995", 
        "use_global_stats": "True"
      }, 
      "inputs": []
    }, 
    {
      "op": "BatchNorm", 
      "name": "bn2c_branch2b", 
      "attrs": {
        "eps": "1e-06", 
        "fix_gamma": "False", 
        "momentum": "0.9995", 
        "use_global_stats": "True"
      }, 
      "inputs": [[77, 0, 0], [78, 0, 0], [79, 0, 0], [80, 0, 1], [81, 0, 1]]
    }, 
    {
      "op": "Activation", 
      "name": "res2c_branch2b_relu", 
      "attrs": {"act_type": "relu"}, 
      "inputs": [[82, 0, 0]]
    }, 
    {
      "op": "null", 
      "name": "res2c_branch2c_weight", 
      "attrs": {
        "dilate": "(1, 1)", 
        "kernel": "(1, 1)", 
        "no_bias": "True", 
        "num_filter": "256", 
        "pad": "(0, 0)", 
        "stride": "(1, 1)", 
        "workspace": "4096"
      }, 
      "inputs": []
    }, 
    {
      "op": "Convolution", 
      "name": "res2c_branch2c", 
      "attrs": {
        "dilate": "(1, 1)", 
        "kernel": "(1, 1)", 
        "no_bias": "True", 
        "num_filter": "256", 
        "pad": "(0, 0)", 
        "stride": "(1, 1)", 
        "workspace": "4096"
      }, 
      "inputs": [[83, 0, 0], [84, 0, 0]]
    }, 
    {
      "op": "null", 
      "name": "bn2c_branch2c_gamma", 
      "attrs": {
        "eps": "1e-06", 
        "fix_gamma": "False", 
        "momentum": "0.9995", 
        "use_global_stats": "True"
      }, 
      "inputs": []
    }, 
    {
      "op": "null", 
      "name": "bn2c_branch2c_beta", 
      "attrs": {
        "eps": "1e-06", 
        "fix_gamma": "False", 
        "momentum": "0.9995", 
        "use_global_stats": "True"
      }, 
      "inputs": []
    }, 
    {
      "op": "null", 
      "name": "bn2c_branch2c_moving_mean", 
      "attrs": {
        "__init__": "[\"zero\", {}]", 
        "eps": "1e-06", 
        "fix_gamma": "False", 
        "momentum": "0.9995", 
        "use_global_stats": "True"
      }, 
      "inputs": []
    }, 
    {
      "op": "null", 
      "name": "bn2c_branch2c_moving_var", 
      "attrs": {
        "__init__": "[\"one\", {}]", 
        "eps": "1e-06", 
        "fix_gamma": "False", 
        "momentum": "0.9995", 
        "use_global_stats": "True"
      }, 
      "inputs": []
    }, 
    {
      "op": "BatchNorm", 
      "name": "bn2c_branch2c", 
      "attrs": {
        "eps": "1e-06", 
        "fix_gamma": "False", 
        "momentum": "0.9995", 
        "use_global_stats": "True"
      }, 
      "inputs": [[85, 0, 0], [86, 0, 0], [87, 0, 0], [88, 0, 1], [89, 0, 1]]
    }, 
    {
      "op": "add_n", 
      "name": "res2c", 
      "attrs": {"num_args": "2"}, 
      "inputs": [[67, 0, 0], [90, 0, 0]]
    }, 
    {
      "op": "Activation", 
      "name": "res2c_relu", 
      "attrs": {"act_type": "relu"}, 
      "inputs": [[91, 0, 0]]
    }, 
    {
      "op": "null", 
      "name": "res3a_branch2a_weight", 
      "attrs": {
        "dilate": "(1, 1)", 
        "kernel": "(1, 1)", 
        "no_bias": "True", 
        "num_filter": "128", 
        "pad": "(0, 0)", 
        "stride": "(2, 2)", 
        "workspace": "4096"
      }, 
      "inputs": []
    }, 
    {
      "op": "Convolution", 
      "name": "res3a_branch2a", 
      "attrs": {
        "dilate": "(1, 1)", 
        "kernel": "(1, 1)", 
        "no_bias": "True", 
        "num_filter": "128", 
        "pad": "(0, 0)", 
        "stride": "(2, 2)", 
        "workspace": "4096"
      }, 
      "inputs": [[92, 0, 0], [93, 0, 0]]
    }, 
    {
      "op": "null", 
      "name": "bn3a_branch2a_gamma", 
      "attrs": {
        "eps": "1e-06", 
        "fix_gamma": "False", 
        "momentum": "0.9995", 
        "use_global_stats": "True"
      }, 
      "inputs": []
    }, 
    {
      "op": "null", 
      "name": "bn3a_branch2a_beta", 
      "attrs": {
        "eps": "1e-06", 
        "fix_gamma": "False", 
        "momentum": "0.9995", 
        "use_global_stats": "True"
      }, 
      "inputs": []
    }, 
    {
      "op": "null", 
      "name": "bn3a_branch2a_moving_mean", 
      "attrs": {
        "__init__": "[\"zero\", {}]", 
        "eps": "1e-06", 
        "fix_gamma": "False", 
        "momentum": "0.9995", 
        "use_global_stats": "True"
      }, 
      "inputs": []
    }, 
    {
      "op": "null", 
      "name": "bn3a_branch2a_moving_var", 
      "attrs": {
        "__init__": "[\"one\", {}]", 
        "eps": "1e-06", 
        "fix_gamma": "False", 
        "momentum": "0.9995", 
        "use_global_stats": "True"
      }, 
      "inputs": []
    }, 
    {
      "op": "BatchNorm", 
      "name": "bn3a_branch2a", 
      "attrs": {
        "eps": "1e-06", 
        "fix_gamma": "False", 
        "momentum": "0.9995", 
        "use_global_stats": "True"
      }, 
      "inputs": [[94, 0, 0], [95, 0, 0], [96, 0, 0], [97, 0, 1], [98, 0, 1]]
    }, 
    {
      "op": "Activation", 
      "name": "res3a_branch2a_relu", 
      "attrs": {"act_type": "relu"}, 
      "inputs": [[99, 0, 0]]
    }, 
    {
      "op": "null", 
      "name": "res3a_branch2b_weight", 
      "attrs": {
        "dilate": "(1, 1)", 
        "kernel": "(3, 3)", 
        "no_bias": "True", 
        "num_filter": "128", 
        "pad": "(1, 1)", 
        "stride": "(1, 1)", 
        "workspace": "4096"
      }, 
      "inputs": []
    }, 
    {
      "op": "Convolution", 
      "name": "res3a_branch2b", 
      "attrs": {
        "dilate": "(1, 1)", 
        "kernel": "(3, 3)", 
        "no_bias": "True", 
        "num_filter": "128", 
        "pad": "(1, 1)", 
        "stride": "(1, 1)", 
        "workspace": "4096"
      }, 
      "inputs": [[100, 0, 0], [101, 0, 0]]
    }, 
    {
      "op": "null", 
      "name": "bn3a_branch2b_gamma", 
      "attrs": {
        "eps": "1e-06", 
        "fix_gamma": "False", 
        "momentum": "0.9995", 
        "use_global_stats": "True"
      }, 
      "inputs": []
    }, 
    {
      "op": "null", 
      "name": "bn3a_branch2b_beta", 
      "attrs": {
        "eps": "1e-06", 
        "fix_gamma": "False", 
        "momentum": "0.9995", 
        "use_global_stats": "True"
      }, 
      "inputs": []
    }, 
    {
      "op": "null", 
      "name": "bn3a_branch2b_moving_mean", 
      "attrs": {
        "__init__": "[\"zero\", {}]", 
        "eps": "1e-06", 
        "fix_gamma": "False", 
        "momentum": "0.9995", 
        "use_global_stats": "True"
      }, 
      "inputs": []
    }, 
    {
      "op": "null", 
      "name": "bn3a_branch2b_moving_var", 
      "attrs": {
        "__init__": "[\"one\", {}]", 
        "eps": "1e-06", 
        "fix_gamma": "False", 
        "momentum": "0.9995", 
        "use_global_stats": "True"
      }, 
      "inputs": []
    }, 
    {
      "op": "BatchNorm", 
      "name": "bn3a_branch2b", 
      "attrs": {
        "eps": "1e-06", 
        "fix_gamma": "False", 
        "momentum": "0.9995", 
        "use_global_stats": "True"
      }, 
      "inputs": [[102, 0, 0], [103, 0, 0], [104, 0, 0], [105, 0, 1], [106, 0, 1]]
    }, 
    {
      "op": "Activation", 
      "name": "res3a_branch2b_relu", 
      "attrs": {"act_type": "relu"}, 
      "inputs": [[107, 0, 0]]
    }, 
    {
      "op": "null", 
      "name": "res3a_branch2c_weight", 
      "attrs": {
        "dilate": "(1, 1)", 
        "kernel": "(1, 1)", 
        "no_bias": "True", 
        "num_filter": "512", 
        "pad": "(0, 0)", 
        "stride": "(1, 1)", 
        "workspace": "4096"
      }, 
      "inputs": []
    }, 
    {
      "op": "Convolution", 
      "name": "res3a_branch2c", 
      "attrs": {
        "dilate": "(1, 1)", 
        "kernel": "(1, 1)", 
        "no_bias": "True", 
        "num_filter": "512", 
        "pad": "(0, 0)", 
        "stride": "(1, 1)", 
        "workspace": "4096"
      }, 
      "inputs": [[108, 0, 0], [109, 0, 0]]
    }, 
    {
      "op": "null", 
      "name": "bn3a_branch2c_gamma", 
      "attrs": {
        "eps": "1e-06", 
        "fix_gamma": "False", 
        "momentum": "0.9995", 
        "use_global_stats": "True"
      }, 
      "inputs": []
    }, 
    {
      "op": "null", 
      "name": "bn3a_branch2c_beta", 
      "attrs": {
        "eps": "1e-06", 
        "fix_gamma": "False", 
        "momentum": "0.9995", 
        "use_global_stats": "True"
      }, 
      "inputs": []
    }, 
    {
      "op": "null", 
      "name": "bn3a_branch2c_moving_mean", 
      "attrs": {
        "__init__": "[\"zero\", {}]", 
        "eps": "1e-06", 
        "fix_gamma": "False", 
        "momentum": "0.9995", 
        "use_global_stats": "True"
      }, 
      "inputs": []
    }, 
    {
      "op": "null", 
      "name": "bn3a_branch2c_moving_var", 
      "attrs": {
        "__init__": "[\"one\", {}]", 
        "eps": "1e-06", 
        "fix_gamma": "False", 
        "momentum": "0.9995", 
        "use_global_stats": "True"
      }, 
      "inputs": []
    }, 
    {
      "op": "BatchNorm", 
      "name": "bn3a_branch2c", 
      "attrs": {
        "eps": "1e-06", 
        "fix_gamma": "False", 
        "momentum": "0.9995", 
        "use_global_stats": "True"
      }, 
      "inputs": [[110, 0, 0], [111, 0, 0], [112, 0, 0], [113, 0, 1], [114, 0, 1]]
    }, 
    {
      "op": "null", 
      "name": "res3a_branch1_weight", 
      "attrs": {
        "dilate": "(1, 1)", 
        "kernel": "(1, 1)", 
        "no_bias": "True", 
        "num_filter": "512", 
        "pad": "(0, 0)", 
        "stride": "(2, 2)", 
        "workspace": "4096"
      }, 
      "inputs": []
    }, 
    {
      "op": "Convolution", 
      "name": "res3a_branch1", 
      "attrs": {
        "dilate": "(1, 1)", 
        "kernel": "(1, 1)", 
        "no_bias": "True", 
        "num_filter": "512", 
        "pad": "(0, 0)", 
        "stride": "(2, 2)", 
        "workspace": "4096"
      }, 
      "inputs": [[92, 0, 0], [116, 0, 0]]
    }, 
    {
      "op": "null", 
      "name": "bn3a_branch1_gamma", 
      "attrs": {
        "eps": "1e-06", 
        "fix_gamma": "False", 
        "momentum": "0.9995", 
        "use_global_stats": "True"
      }, 
      "inputs": []
    }, 
    {
      "op": "null", 
      "name": "bn3a_branch1_beta", 
      "attrs": {
        "eps": "1e-06", 
        "fix_gamma": "False", 
        "momentum": "0.9995", 
        "use_global_stats": "True"
      }, 
      "inputs": []
    }, 
    {
      "op": "null", 
      "name": "bn3a_branch1_moving_mean", 
      "attrs": {
        "__init__": "[\"zero\", {}]", 
        "eps": "1e-06", 
        "fix_gamma": "False", 
        "momentum": "0.9995", 
        "use_global_stats": "True"
      }, 
      "inputs": []
    }, 
    {
      "op": "null", 
      "name": "bn3a_branch1_moving_var", 
      "attrs": {
        "__init__": "[\"one\", {}]", 
        "eps": "1e-06", 
        "fix_gamma": "False", 
        "momentum": "0.9995", 
        "use_global_stats": "True"
      }, 
      "inputs": []
    }, 
    {
      "op": "BatchNorm", 
      "name": "bn3a_branch1", 
      "attrs": {
        "eps": "1e-06", 
        "fix_gamma": "False", 
        "momentum": "0.9995", 
        "use_global_stats": "True"
      }, 
      "inputs": [[117, 0, 0], [118, 0, 0], [119, 0, 0], [120, 0, 1], [121, 0, 1]]
    }, 
    {
      "op": "add_n", 
      "name": "res3a", 
      "attrs": {"num_args": "2"}, 
      "inputs": [[115, 0, 0], [122, 0, 0]]
    }, 
    {
      "op": "Activation", 
      "name": "res3a_relu", 
      "attrs": {"act_type": "relu"}, 
      "inputs": [[123, 0, 0]]
    }, 
    {
      "op": "null", 
      "name": "res3b1_branch2a_weight", 
      "attrs": {
        "dilate": "(1, 1)", 
        "kernel": "(1, 1)", 
        "no_bias": "True", 
        "num_filter": "128", 
        "pad": "(0, 0)", 
        "stride": "(1, 1)", 
        "workspace": "4096"
      }, 
      "inputs": []
    }, 
    {
      "op": "Convolution", 
      "name": "res3b1_branch2a", 
      "attrs": {
        "dilate": "(1, 1)", 
        "kernel": "(1, 1)", 
        "no_bias": "True", 
        "num_filter": "128", 
        "pad": "(0, 0)", 
        "stride": "(1, 1)", 
        "workspace": "4096"
      }, 
      "inputs": [[124, 0, 0], [125, 0, 0]]
    }, 
    {
      "op": "null", 
      "name": "bn3b1_branch2a_gamma", 
      "attrs": {
        "eps": "1e-06", 
        "fix_gamma": "False", 
        "momentum": "0.9995", 
        "use_global_stats": "True"
      }, 
      "inputs": []
    }, 
    {
      "op": "null", 
      "name": "bn3b1_branch2a_beta", 
      "attrs": {
        "eps": "1e-06", 
        "fix_gamma": "False", 
        "momentum": "0.9995", 
        "use_global_stats": "True"
      }, 
      "inputs": []
    }, 
    {
      "op": "null", 
      "name": "bn3b1_branch2a_moving_mean", 
      "attrs": {
        "__init__": "[\"zero\", {}]", 
        "eps": "1e-06", 
        "fix_gamma": "False", 
        "momentum": "0.9995", 
        "use_global_stats": "True"
      }, 
      "inputs": []
    }, 
    {
      "op": "null", 
      "name": "bn3b1_branch2a_moving_var", 
      "attrs": {
        "__init__": "[\"one\", {}]", 
        "eps": "1e-06", 
        "fix_gamma": "False", 
        "momentum": "0.9995", 
        "use_global_stats": "True"
      }, 
      "inputs": []
    }, 
    {
      "op": "BatchNorm", 
      "name": "bn3b1_branch2a", 
      "attrs": {
        "eps": "1e-06", 
        "fix_gamma": "False", 
        "momentum": "0.9995", 
        "use_global_stats": "True"
      }, 
      "inputs": [[126, 0, 0], [127, 0, 0], [128, 0, 0], [129, 0, 1], [130, 0, 1]]
    }, 
    {
      "op": "Activation", 
      "name": "res3b1_branch2a_relu", 
      "attrs": {"act_type": "relu"}, 
      "inputs": [[131, 0, 0]]
    }, 
    {
      "op": "null", 
      "name": "res3b1_branch2b_weight", 
      "attrs": {
        "dilate": "(1, 1)", 
        "kernel": "(3, 3)", 
        "no_bias": "True", 
        "num_filter": "128", 
        "pad": "(1, 1)", 
        "stride": "(1, 1)", 
        "workspace": "4096"
      }, 
      "inputs": []
    }, 
    {
      "op": "Convolution", 
      "name": "res3b1_branch2b", 
      "attrs": {
        "dilate": "(1, 1)", 
        "kernel": "(3, 3)", 
        "no_bias": "True", 
        "num_filter": "128", 
        "pad": "(1, 1)", 
        "stride": "(1, 1)", 
        "workspace": "4096"
      }, 
      "inputs": [[132, 0, 0], [133, 0, 0]]
    }, 
    {
      "op": "null", 
      "name": "bn3b1_branch2b_gamma", 
      "attrs": {
        "eps": "1e-06", 
        "fix_gamma": "False", 
        "momentum": "0.9995", 
        "use_global_stats": "True"
      }, 
      "inputs": []
    }, 
    {
      "op": "null", 
      "name": "bn3b1_branch2b_beta", 
      "attrs": {
        "eps": "1e-06", 
        "fix_gamma": "False", 
        "momentum": "0.9995", 
        "use_global_stats": "True"
      }, 
      "inputs": []
    }, 
    {
      "op": "null", 
      "name": "bn3b1_branch2b_moving_mean", 
      "attrs": {
        "__init__": "[\"zero\", {}]", 
        "eps": "1e-06", 
        "fix_gamma": "False", 
        "momentum": "0.9995", 
        "use_global_stats": "True"
      }, 
      "inputs": []
    }, 
    {
      "op": "null", 
      "name": "bn3b1_branch2b_moving_var", 
      "attrs": {
        "__init__": "[\"one\", {}]", 
        "eps": "1e-06", 
        "fix_gamma": "False", 
        "momentum": "0.9995", 
        "use_global_stats": "True"
      }, 
      "inputs": []
    }, 
    {
      "op": "BatchNorm", 
      "name": "bn3b1_branch2b", 
      "attrs": {
        "eps": "1e-06", 
        "fix_gamma": "False", 
        "momentum": "0.9995", 
        "use_global_stats": "True"
      }, 
      "inputs": [[134, 0, 0], [135, 0, 0], [136, 0, 0], [137, 0, 1], [138, 0, 1]]
    }, 
    {
      "op": "Activation", 
      "name": "res3b1_branch2b_relu", 
      "attrs": {"act_type": "relu"}, 
      "inputs": [[139, 0, 0]]
    }, 
    {
      "op": "null", 
      "name": "res3b1_branch2c_weight", 
      "attrs": {
        "dilate": "(1, 1)", 
        "kernel": "(1, 1)", 
        "no_bias": "True", 
        "num_filter": "512", 
        "pad": "(0, 0)", 
        "stride": "(1, 1)", 
        "workspace": "4096"
      }, 
      "inputs": []
    }, 
    {
      "op": "Convolution", 
      "name": "res3b1_branch2c", 
      "attrs": {
        "dilate": "(1, 1)", 
        "kernel": "(1, 1)", 
        "no_bias": "True", 
        "num_filter": "512", 
        "pad": "(0, 0)", 
        "stride": "(1, 1)", 
        "workspace": "4096"
      }, 
      "inputs": [[140, 0, 0], [141, 0, 0]]
    }, 
    {
      "op": "null", 
      "name": "bn3b1_branch2c_gamma", 
      "attrs": {
        "eps": "1e-06", 
        "fix_gamma": "False", 
        "momentum": "0.9995", 
        "use_global_stats": "True"
      }, 
      "inputs": []
    }, 
    {
      "op": "null", 
      "name": "bn3b1_branch2c_beta", 
      "attrs": {
        "eps": "1e-06", 
        "fix_gamma": "False", 
        "momentum": "0.9995", 
        "use_global_stats": "True"
      }, 
      "inputs": []
    }, 
    {
      "op": "null", 
      "name": "bn3b1_branch2c_moving_mean", 
      "attrs": {
        "__init__": "[\"zero\", {}]", 
        "eps": "1e-06", 
        "fix_gamma": "False", 
        "momentum": "0.9995", 
        "use_global_stats": "True"
      }, 
      "inputs": []
    }, 
    {
      "op": "null", 
      "name": "bn3b1_branch2c_moving_var", 
      "attrs": {
        "__init__": "[\"one\", {}]", 
        "eps": "1e-06", 
        "fix_gamma": "False", 
        "momentum": "0.9995", 
        "use_global_stats": "True"
      }, 
      "inputs": []
    }, 
    {
      "op": "BatchNorm", 
      "name": "bn3b1_branch2c", 
      "attrs": {
        "eps": "1e-06", 
        "fix_gamma": "False", 
        "momentum": "0.9995", 
        "use_global_stats": "True"
      }, 
      "inputs": [[142, 0, 0], [143, 0, 0], [144, 0, 0], [145, 0, 1], [146, 0, 1]]
    }, 
    {
      "op": "add_n", 
      "name": "res3b1", 
      "attrs": {"num_args": "2"}, 
      "inputs": [[124, 0, 0], [147, 0, 0]]
    }, 
    {
      "op": "Activation", 
      "name": "res3b1_relu", 
      "attrs": {"act_type": "relu"}, 
      "inputs": [[148, 0, 0]]
    }, 
    {
      "op": "null", 
      "name": "res3b2_branch2a_weight", 
      "attrs": {
        "dilate": "(1, 1)", 
        "kernel": "(1, 1)", 
        "no_bias": "True", 
        "num_filter": "128", 
        "pad": "(0, 0)", 
        "stride": "(1, 1)", 
        "workspace": "4096"
      }, 
      "inputs": []
    }, 
    {
      "op": "Convolution", 
      "name": "res3b2_branch2a", 
      "attrs": {
        "dilate": "(1, 1)", 
        "kernel": "(1, 1)", 
        "no_bias": "True", 
        "num_filter": "128", 
        "pad": "(0, 0)", 
        "stride": "(1, 1)", 
        "workspace": "4096"
      }, 
      "inputs": [[149, 0, 0], [150, 0, 0]]
    }, 
    {
      "op": "null", 
      "name": "bn3b2_branch2a_gamma", 
      "attrs": {
        "eps": "1e-06", 
        "fix_gamma": "False", 
        "momentum": "0.9995", 
        "use_global_stats": "True"
      }, 
      "inputs": []
    }, 
    {
      "op": "null", 
      "name": "bn3b2_branch2a_beta", 
      "attrs": {
        "eps": "1e-06", 
        "fix_gamma": "False", 
        "momentum": "0.9995", 
        "use_global_stats": "True"
      }, 
      "inputs": []
    }, 
    {
      "op": "null", 
      "name": "bn3b2_branch2a_moving_mean", 
      "attrs": {
        "__init__": "[\"zero\", {}]", 
        "eps": "1e-06", 
        "fix_gamma": "False", 
        "momentum": "0.9995", 
        "use_global_stats": "True"
      }, 
      "inputs": []
    }, 
    {
      "op": "null", 
      "name": "bn3b2_branch2a_moving_var", 
      "attrs": {
        "__init__": "[\"one\", {}]", 
        "eps": "1e-06", 
        "fix_gamma": "False", 
        "momentum": "0.9995", 
        "use_global_stats": "True"
      }, 
      "inputs": []
    }, 
    {
      "op": "BatchNorm", 
      "name": "bn3b2_branch2a", 
      "attrs": {
        "eps": "1e-06", 
        "fix_gamma": "False", 
        "momentum": "0.9995", 
        "use_global_stats": "True"
      }, 
      "inputs": [[151, 0, 0], [152, 0, 0], [153, 0, 0], [154, 0, 1], [155, 0, 1]]
    }, 
    {
      "op": "Activation", 
      "name": "res3b2_branch2a_relu", 
      "attrs": {"act_type": "relu"}, 
      "inputs": [[156, 0, 0]]
    }, 
    {
      "op": "null", 
      "name": "res3b2_branch2b_weight", 
      "attrs": {
        "dilate": "(1, 1)", 
        "kernel": "(3, 3)", 
        "no_bias": "True", 
        "num_filter": "128", 
        "pad": "(1, 1)", 
        "stride": "(1, 1)", 
        "workspace": "4096"
      }, 
      "inputs": []
    }, 
    {
      "op": "Convolution", 
      "name": "res3b2_branch2b", 
      "attrs": {
        "dilate": "(1, 1)", 
        "kernel": "(3, 3)", 
        "no_bias": "True", 
        "num_filter": "128", 
        "pad": "(1, 1)", 
        "stride": "(1, 1)", 
        "workspace": "4096"
      }, 
      "inputs": [[157, 0, 0], [158, 0, 0]]
    }, 
    {
      "op": "null", 
      "name": "bn3b2_branch2b_gamma", 
      "attrs": {
        "eps": "1e-06", 
        "fix_gamma": "False", 
        "momentum": "0.9995", 
        "use_global_stats": "True"
      }, 
      "inputs": []
    }, 
    {
      "op": "null", 
      "name": "bn3b2_branch2b_beta", 
      "attrs": {
        "eps": "1e-06", 
        "fix_gamma": "False", 
        "momentum": "0.9995", 
        "use_global_stats": "True"
      }, 
      "inputs": []
    }, 
    {
      "op": "null", 
      "name": "bn3b2_branch2b_moving_mean", 
      "attrs": {
        "__init__": "[\"zero\", {}]", 
        "eps": "1e-06", 
        "fix_gamma": "False", 
        "momentum": "0.9995", 
        "use_global_stats": "True"
      }, 
      "inputs": []
    }, 
    {
      "op": "null", 
      "name": "bn3b2_branch2b_moving_var", 
      "attrs": {
        "__init__": "[\"one\", {}]", 
        "eps": "1e-06", 
        "fix_gamma": "False", 
        "momentum": "0.9995", 
        "use_global_stats": "True"
      }, 
      "inputs": []
    }, 
    {
      "op": "BatchNorm", 
      "name": "bn3b2_branch2b", 
      "attrs": {
        "eps": "1e-06", 
        "fix_gamma": "False", 
        "momentum": "0.9995", 
        "use_global_stats": "True"
      }, 
      "inputs": [[159, 0, 0], [160, 0, 0], [161, 0, 0], [162, 0, 1], [163, 0, 1]]
    }, 
    {
      "op": "Activation", 
      "name": "res3b2_branch2b_relu", 
      "attrs": {"act_type": "relu"}, 
      "inputs": [[164, 0, 0]]
    }, 
    {
      "op": "null", 
      "name": "res3b2_branch2c_weight", 
      "attrs": {
        "dilate": "(1, 1)", 
        "kernel": "(1, 1)", 
        "no_bias": "True", 
        "num_filter": "512", 
        "pad": "(0, 0)", 
        "stride": "(1, 1)", 
        "workspace": "4096"
      }, 
      "inputs": []
    }, 
    {
      "op": "Convolution", 
      "name": "res3b2_branch2c", 
      "attrs": {
        "dilate": "(1, 1)", 
        "kernel": "(1, 1)", 
        "no_bias": "True", 
        "num_filter": "512", 
        "pad": "(0, 0)", 
        "stride": "(1, 1)", 
        "workspace": "4096"
      }, 
      "inputs": [[165, 0, 0], [166, 0, 0]]
    }, 
    {
      "op": "null", 
      "name": "bn3b2_branch2c_gamma", 
      "attrs": {
        "eps": "1e-06", 
        "fix_gamma": "False", 
        "momentum": "0.9995", 
        "use_global_stats": "True"
      }, 
      "inputs": []
    }, 
    {
      "op": "null", 
      "name": "bn3b2_branch2c_beta", 
      "attrs": {
        "eps": "1e-06", 
        "fix_gamma": "False", 
        "momentum": "0.9995", 
        "use_global_stats": "True"
      }, 
      "inputs": []
    }, 
    {
      "op": "null", 
      "name": "bn3b2_branch2c_moving_mean", 
      "attrs": {
        "__init__": "[\"zero\", {}]", 
        "eps": "1e-06", 
        "fix_gamma": "False", 
        "momentum": "0.9995", 
        "use_global_stats": "True"
      }, 
      "inputs": []
    }, 
    {
      "op": "null", 
      "name": "bn3b2_branch2c_moving_var", 
      "attrs": {
        "__init__": "[\"one\", {}]", 
        "eps": "1e-06", 
        "fix_gamma": "False", 
        "momentum": "0.9995", 
        "use_global_stats": "True"
      }, 
      "inputs": []
    }, 
    {
      "op": "BatchNorm", 
      "name": "bn3b2_branch2c", 
      "attrs": {
        "eps": "1e-06", 
        "fix_gamma": "False", 
        "momentum": "0.9995", 
        "use_global_stats": "True"
      }, 
      "inputs": [[167, 0, 0], [168, 0, 0], [169, 0, 0], [170, 0, 1], [171, 0, 1]]
    }, 
    {
      "op": "add_n", 
      "name": "res3b2", 
      "attrs": {"num_args": "2"}, 
      "inputs": [[149, 0, 0], [172, 0, 0]]
    }, 
    {
      "op": "Activation", 
      "name": "res3b2_relu", 
      "attrs": {"act_type": "relu"}, 
      "inputs": [[173, 0, 0]]
    }, 
    {
      "op": "null", 
      "name": "res3b3_branch2a_weight", 
      "attrs": {
        "dilate": "(1, 1)", 
        "kernel": "(1, 1)", 
        "no_bias": "True", 
        "num_filter": "128", 
        "pad": "(0, 0)", 
        "stride": "(1, 1)", 
        "workspace": "4096"
      }, 
      "inputs": []
    }, 
    {
      "op": "Convolution", 
      "name": "res3b3_branch2a", 
      "attrs": {
        "dilate": "(1, 1)", 
        "kernel": "(1, 1)", 
        "no_bias": "True", 
        "num_filter": "128", 
        "pad": "(0, 0)", 
        "stride": "(1, 1)", 
        "workspace": "4096"
      }, 
      "inputs": [[174, 0, 0], [175, 0, 0]]
    }, 
    {
      "op": "null", 
      "name": "bn3b3_branch2a_gamma", 
      "attrs": {
        "eps": "1e-06", 
        "fix_gamma": "False", 
        "momentum": "0.9995", 
        "use_global_stats": "True"
      }, 
      "inputs": []
    }, 
    {
      "op": "null", 
      "name": "bn3b3_branch2a_beta", 
      "attrs": {
        "eps": "1e-06", 
        "fix_gamma": "False", 
        "momentum": "0.9995", 
        "use_global_stats": "True"
      }, 
      "inputs": []
    }, 
    {
      "op": "null", 
      "name": "bn3b3_branch2a_moving_mean", 
      "attrs": {
        "__init__": "[\"zero\", {}]", 
        "eps": "1e-06", 
        "fix_gamma": "False", 
        "momentum": "0.9995", 
        "use_global_stats": "True"
      }, 
      "inputs": []
    }, 
    {
      "op": "null", 
      "name": "bn3b3_branch2a_moving_var", 
      "attrs": {
        "__init__": "[\"one\", {}]", 
        "eps": "1e-06", 
        "fix_gamma": "False", 
        "momentum": "0.9995", 
        "use_global_stats": "True"
      }, 
      "inputs": []
    }, 
    {
      "op": "BatchNorm", 
      "name": "bn3b3_branch2a", 
      "attrs": {
        "eps": "1e-06", 
        "fix_gamma": "False", 
        "momentum": "0.9995", 
        "use_global_stats": "True"
      }, 
      "inputs": [[176, 0, 0], [177, 0, 0], [178, 0, 0], [179, 0, 1], [180, 0, 1]]
    }, 
    {
      "op": "Activation", 
      "name": "res3b3_branch2a_relu", 
      "attrs": {"act_type": "relu"}, 
      "inputs": [[181, 0, 0]]
    }, 
    {
      "op": "null", 
      "name": "res3b3_branch2b_weight", 
      "attrs": {
        "dilate": "(1, 1)", 
        "kernel": "(3, 3)", 
        "no_bias": "True", 
        "num_filter": "128", 
        "pad": "(1, 1)", 
        "stride": "(1, 1)", 
        "workspace": "4096"
      }, 
      "inputs": []
    }, 
    {
      "op": "Convolution", 
      "name": "res3b3_branch2b", 
      "attrs": {
        "dilate": "(1, 1)", 
        "kernel": "(3, 3)", 
        "no_bias": "True", 
        "num_filter": "128", 
        "pad": "(1, 1)", 
        "stride": "(1, 1)", 
        "workspace": "4096"
      }, 
      "inputs": [[182, 0, 0], [183, 0, 0]]
    }, 
    {
      "op": "null", 
      "name": "bn3b3_branch2b_gamma", 
      "attrs": {
        "eps": "1e-06", 
        "fix_gamma": "False", 
        "momentum": "0.9995", 
        "use_global_stats": "True"
      }, 
      "inputs": []
    }, 
    {
      "op": "null", 
      "name": "bn3b3_branch2b_beta", 
      "attrs": {
        "eps": "1e-06", 
        "fix_gamma": "False", 
        "momentum": "0.9995", 
        "use_global_stats": "True"
      }, 
      "inputs": []
    }, 
    {
      "op": "null", 
      "name": "bn3b3_branch2b_moving_mean", 
      "attrs": {
        "__init__": "[\"zero\", {}]", 
        "eps": "1e-06", 
        "fix_gamma": "False", 
        "momentum": "0.9995", 
        "use_global_stats": "True"
      }, 
      "inputs": []
    }, 
    {
      "op": "null", 
      "name": "bn3b3_branch2b_moving_var", 
      "attrs": {
        "__init__": "[\"one\", {}]", 
        "eps": "1e-06", 
        "fix_gamma": "False", 
        "momentum": "0.9995", 
        "use_global_stats": "True"
      }, 
      "inputs": []
    }, 
    {
      "op": "BatchNorm", 
      "name": "bn3b3_branch2b", 
      "attrs": {
        "eps": "1e-06", 
        "fix_gamma": "False", 
        "momentum": "0.9995", 
        "use_global_stats": "True"
      }, 
      "inputs": [[184, 0, 0], [185, 0, 0], [186, 0, 0], [187, 0, 1], [188, 0, 1]]
    }, 
    {
      "op": "Activation", 
      "name": "res3b3_branch2b_relu", 
      "attrs": {"act_type": "relu"}, 
      "inputs": [[189, 0, 0]]
    }, 
    {
      "op": "null", 
      "name": "res3b3_branch2c_weight", 
      "attrs": {
        "dilate": "(1, 1)", 
        "kernel": "(1, 1)", 
        "no_bias": "True", 
        "num_filter": "512", 
        "pad": "(0, 0)", 
        "stride": "(1, 1)", 
        "workspace": "4096"
      }, 
      "inputs": []
    }, 
    {
      "op": "Convolution", 
      "name": "res3b3_branch2c", 
      "attrs": {
        "dilate": "(1, 1)", 
        "kernel": "(1, 1)", 
        "no_bias": "True", 
        "num_filter": "512", 
        "pad": "(0, 0)", 
        "stride": "(1, 1)", 
        "workspace": "4096"
      }, 
      "inputs": [[190, 0, 0], [191, 0, 0]]
    }, 
    {
      "op": "null", 
      "name": "bn3b3_branch2c_gamma", 
      "attrs": {
        "eps": "1e-06", 
        "fix_gamma": "False", 
        "momentum": "0.9995", 
        "use_global_stats": "True"
      }, 
      "inputs": []
    }, 
    {
      "op": "null", 
      "name": "bn3b3_branch2c_beta", 
      "attrs": {
        "eps": "1e-06", 
        "fix_gamma": "False", 
        "momentum": "0.9995", 
        "use_global_stats": "True"
      }, 
      "inputs": []
    }, 
    {
      "op": "null", 
      "name": "bn3b3_branch2c_moving_mean", 
      "attrs": {
        "__init__": "[\"zero\", {}]", 
        "eps": "1e-06", 
        "fix_gamma": "False", 
        "momentum": "0.9995", 
        "use_global_stats": "True"
      }, 
      "inputs": []
    }, 
    {
      "op": "null", 
      "name": "bn3b3_branch2c_moving_var", 
      "attrs": {
        "__init__": "[\"one\", {}]", 
        "eps": "1e-06", 
        "fix_gamma": "False", 
        "momentum": "0.9995", 
        "use_global_stats": "True"
      }, 
      "inputs": []
    }, 
    {
      "op": "BatchNorm", 
      "name": "bn3b3_branch2c", 
      "attrs": {
        "eps": "1e-06", 
        "fix_gamma": "False", 
        "momentum": "0.9995", 
        "use_global_stats": "True"
      }, 
      "inputs": [[192, 0, 0], [193, 0, 0], [194, 0, 0], [195, 0, 1], [196, 0, 1]]
    }, 
    {
      "op": "add_n", 
      "name": "res3b3", 
      "attrs": {"num_args": "2"}, 
      "inputs": [[174, 0, 0], [197, 0, 0]]
    }, 
    {
      "op": "Activation", 
      "name": "res3b3_relu", 
      "attrs": {"act_type": "relu"}, 
      "inputs": [[198, 0, 0]]
    }, 
    {
      "op": "null", 
      "name": "res4a_branch2a_weight", 
      "attrs": {
        "dilate": "(1, 1)", 
        "kernel": "(1, 1)", 
        "no_bias": "True", 
        "num_filter": "256", 
        "pad": "(0, 0)", 
        "stride": "(1, 1)", 
        "workspace": "4096"
      }, 
      "inputs": []
    }, 
    {
      "op": "Convolution", 
      "name": "res4a_branch2a", 
      "attrs": {
        "dilate": "(1, 1)", 
        "kernel": "(1, 1)", 
        "no_bias": "True", 
        "num_filter": "256", 
        "pad": "(0, 0)", 
        "stride": "(1, 1)", 
        "workspace": "4096"
      }, 
      "inputs": [[199, 0, 0], [200, 0, 0]]
    }, 
    {
      "op": "null", 
      "name": "bn4a_branch2a_gamma", 
      "attrs": {
        "eps": "1e-06", 
        "fix_gamma": "False", 
        "momentum": "0.9995", 
        "use_global_stats": "True"
      }, 
      "inputs": []
    }, 
    {
      "op": "null", 
      "name": "bn4a_branch2a_beta", 
      "attrs": {
        "eps": "1e-06", 
        "fix_gamma": "False", 
        "momentum": "0.9995", 
        "use_global_stats": "True"
      }, 
      "inputs": []
    }, 
    {
      "op": "null", 
      "name": "bn4a_branch2a_moving_mean", 
      "attrs": {
        "__init__": "[\"zero\", {}]", 
        "eps": "1e-06", 
        "fix_gamma": "False", 
        "momentum": "0.9995", 
        "use_global_stats": "True"
      }, 
      "inputs": []
    }, 
    {
      "op": "null", 
      "name": "bn4a_branch2a_moving_var", 
      "attrs": {
        "__init__": "[\"one\", {}]", 
        "eps": "1e-06", 
        "fix_gamma": "False", 
        "momentum": "0.9995", 
        "use_global_stats": "True"
      }, 
      "inputs": []
    }, 
    {
      "op": "BatchNorm", 
      "name": "bn4a_branch2a", 
      "attrs": {
        "eps": "1e-06", 
        "fix_gamma": "False", 
        "momentum": "0.9995", 
        "use_global_stats": "True"
      }, 
      "inputs": [[201, 0, 0], [202, 0, 0], [203, 0, 0], [204, 0, 1], [205, 0, 1]]
    }, 
    {
      "op": "Activation", 
      "name": "res4a_branch2a_relu", 
      "attrs": {"act_type": "relu"}, 
      "inputs": [[206, 0, 0]]
    }, 
    {
      "op": "null", 
      "name": "res4a_branch2b_weight", 
      "attrs": {
        "dilate": "(1, 1)", 
        "kernel": "(3, 3)", 
        "no_bias": "True", 
        "num_filter": "256", 
        "pad": "(1, 1)", 
        "stride": "(1, 1)", 
        "workspace": "4096"
      }, 
      "inputs": []
    }, 
    {
      "op": "Convolution", 
      "name": "res4a_branch2b", 
      "attrs": {
        "dilate": "(1, 1)", 
        "kernel": "(3, 3)", 
        "no_bias": "True", 
        "num_filter": "256", 
        "pad": "(1, 1)", 
        "stride": "(1, 1)", 
        "workspace": "4096"
      }, 
      "inputs": [[207, 0, 0], [208, 0, 0]]
    }, 
    {
      "op": "null", 
      "name": "bn4a_branch2b_gamma", 
      "attrs": {
        "eps": "1e-06", 
        "fix_gamma": "False", 
        "momentum": "0.9995", 
        "use_global_stats": "True"
      }, 
      "inputs": []
    }, 
    {
      "op": "null", 
      "name": "bn4a_branch2b_beta", 
      "attrs": {
        "eps": "1e-06", 
        "fix_gamma": "False", 
        "momentum": "0.9995", 
        "use_global_stats": "True"
      }, 
      "inputs": []
    }, 
    {
      "op": "null", 
      "name": "bn4a_branch2b_moving_mean", 
      "attrs": {
        "__init__": "[\"zero\", {}]", 
        "eps": "1e-06", 
        "fix_gamma": "False", 
        "momentum": "0.9995", 
        "use_global_stats": "True"
      }, 
      "inputs": []
    }, 
    {
      "op": "null", 
      "name": "bn4a_branch2b_moving_var", 
      "attrs": {
        "__init__": "[\"one\", {}]", 
        "eps": "1e-06", 
        "fix_gamma": "False", 
        "momentum": "0.9995", 
        "use_global_stats": "True"
      }, 
      "inputs": []
    }, 
    {
      "op": "BatchNorm", 
      "name": "bn4a_branch2b", 
      "attrs": {
        "eps": "1e-06", 
        "fix_gamma": "False", 
        "momentum": "0.9995", 
        "use_global_stats": "True"
      }, 
      "inputs": [[209, 0, 0], [210, 0, 0], [211, 0, 0], [212, 0, 1], [213, 0, 1]]
    }, 
    {
      "op": "Activation", 
      "name": "res4a_branch2b_relu", 
      "attrs": {"act_type": "relu"}, 
      "inputs": [[214, 0, 0]]
    }, 
    {
      "op": "null", 
      "name": "res4a_branch2c_weight", 
      "attrs": {
        "dilate": "(1, 1)", 
        "kernel": "(1, 1)", 
        "no_bias": "True", 
        "num_filter": "1024", 
        "pad": "(0, 0)", 
        "stride": "(1, 1)", 
        "workspace": "4096"
      }, 
      "inputs": []
    }, 
    {
      "op": "Convolution", 
      "name": "res4a_branch2c", 
      "attrs": {
        "dilate": "(1, 1)", 
        "kernel": "(1, 1)", 
        "no_bias": "True", 
        "num_filter": "1024", 
        "pad": "(0, 0)", 
        "stride": "(1, 1)", 
        "workspace": "4096"
      }, 
      "inputs": [[215, 0, 0], [216, 0, 0]]
    }, 
    {
      "op": "null", 
      "name": "bn4a_branch2c_gamma", 
      "attrs": {
        "eps": "1e-06", 
        "fix_gamma": "False", 
        "momentum": "0.9995", 
        "use_global_stats": "True"
      }, 
      "inputs": []
    }, 
    {
      "op": "null", 
      "name": "bn4a_branch2c_beta", 
      "attrs": {
        "eps": "1e-06", 
        "fix_gamma": "False", 
        "momentum": "0.9995", 
        "use_global_stats": "True"
      }, 
      "inputs": []
    }, 
    {
      "op": "null", 
      "name": "bn4a_branch2c_moving_mean", 
      "attrs": {
        "__init__": "[\"zero\", {}]", 
        "eps": "1e-06", 
        "fix_gamma": "False", 
        "momentum": "0.9995", 
        "use_global_stats": "True"
      }, 
      "inputs": []
    }, 
    {
      "op": "null", 
      "name": "bn4a_branch2c_moving_var", 
      "attrs": {
        "__init__": "[\"one\", {}]", 
        "eps": "1e-06", 
        "fix_gamma": "False", 
        "momentum": "0.9995", 
        "use_global_stats": "True"
      }, 
      "inputs": []
    }, 
    {
      "op": "BatchNorm", 
      "name": "bn4a_branch2c", 
      "attrs": {
        "eps": "1e-06", 
        "fix_gamma": "False", 
        "momentum": "0.9995", 
        "use_global_stats": "True"
      }, 
      "inputs": [[217, 0, 0], [218, 0, 0], [219, 0, 0], [220, 0, 1], [221, 0, 1]]
    }, 
    {
      "op": "null", 
      "name": "res4a_branch1_weight", 
      "attrs": {
        "dilate": "(1, 1)", 
        "kernel": "(1, 1)", 
        "no_bias": "True", 
        "num_filter": "1024", 
        "pad": "(0, 0)", 
        "stride": "(1, 1)", 
        "workspace": "4096"
      }, 
      "inputs": []
    }, 
    {
      "op": "Convolution", 
      "name": "res4a_branch1", 
      "attrs": {
        "dilate": "(1, 1)", 
        "kernel": "(1, 1)", 
        "no_bias": "True", 
        "num_filter": "1024", 
        "pad": "(0, 0)", 
        "stride": "(1, 1)", 
        "workspace": "4096"
      }, 
      "inputs": [[199, 0, 0], [223, 0, 0]]
    }, 
    {
      "op": "null", 
      "name": "bn4a_branch1_gamma", 
      "attrs": {
        "eps": "1e-06", 
        "fix_gamma": "False", 
        "momentum": "0.9995", 
        "use_global_stats": "True"
      }, 
      "inputs": []
    }, 
    {
      "op": "null", 
      "name": "bn4a_branch1_beta", 
      "attrs": {
        "eps": "1e-06", 
        "fix_gamma": "False", 
        "momentum": "0.9995", 
        "use_global_stats": "True"
      }, 
      "inputs": []
    }, 
    {
      "op": "null", 
      "name": "bn4a_branch1_moving_mean", 
      "attrs": {
        "__init__": "[\"zero\", {}]", 
        "eps": "1e-06", 
        "fix_gamma": "False", 
        "momentum": "0.9995", 
        "use_global_stats": "True"
      }, 
      "inputs": []
    }, 
    {
      "op": "null", 
      "name": "bn4a_branch1_moving_var", 
      "attrs": {
        "__init__": "[\"one\", {}]", 
        "eps": "1e-06", 
        "fix_gamma": "False", 
        "momentum": "0.9995", 
        "use_global_stats": "True"
      }, 
      "inputs": []
    }, 
    {
      "op": "BatchNorm", 
      "name": "bn4a_branch1", 
      "attrs": {
        "eps": "1e-06", 
        "fix_gamma": "False", 
        "momentum": "0.9995", 
        "use_global_stats": "True"
      }, 
      "inputs": [[224, 0, 0], [225, 0, 0], [226, 0, 0], [227, 0, 1], [228, 0, 1]]
    }, 
    {
      "op": "add_n", 
      "name": "res4a", 
      "attrs": {"num_args": "2"}, 
      "inputs": [[222, 0, 0], [229, 0, 0]]
    }, 
    {
      "op": "Activation", 
      "name": "res4a_relu", 
      "attrs": {"act_type": "relu"}, 
      "inputs": [[230, 0, 0]]
    }, 
    {
      "op": "null", 
      "name": "res4b1_branch2a_weight", 
      "attrs": {
        "dilate": "(1, 1)", 
        "kernel": "(1, 1)", 
        "no_bias": "True", 
        "num_filter": "256", 
        "pad": "(0, 0)", 
        "stride": "(1, 1)", 
        "workspace": "4096"
      }, 
      "inputs": []
    }, 
    {
      "op": "Convolution", 
      "name": "res4b1_branch2a", 
      "attrs": {
        "dilate": "(1, 1)", 
        "kernel": "(1, 1)", 
        "no_bias": "True", 
        "num_filter": "256", 
        "pad": "(0, 0)", 
        "stride": "(1, 1)", 
        "workspace": "4096"
      }, 
      "inputs": [[231, 0, 0], [232, 0, 0]]
    }, 
    {
      "op": "null", 
      "name": "bn4b1_branch2a_gamma", 
      "attrs": {
        "eps": "1e-06", 
        "fix_gamma": "False", 
        "momentum": "0.9995", 
        "use_global_stats": "True"
      }, 
      "inputs": []
    }, 
    {
      "op": "null", 
      "name": "bn4b1_branch2a_beta", 
      "attrs": {
        "eps": "1e-06", 
        "fix_gamma": "False", 
        "momentum": "0.9995", 
        "use_global_stats": "True"
      }, 
      "inputs": []
    }, 
    {
      "op": "null", 
      "name": "bn4b1_branch2a_moving_mean", 
      "attrs": {
        "__init__": "[\"zero\", {}]", 
        "eps": "1e-06", 
        "fix_gamma": "False", 
        "momentum": "0.9995", 
        "use_global_stats": "True"
      }, 
      "inputs": []
    }, 
    {
      "op": "null", 
      "name": "bn4b1_branch2a_moving_var", 
      "attrs": {
        "__init__": "[\"one\", {}]", 
        "eps": "1e-06", 
        "fix_gamma": "False", 
        "momentum": "0.9995", 
        "use_global_stats": "True"
      }, 
      "inputs": []
    }, 
    {
      "op": "BatchNorm", 
      "name": "bn4b1_branch2a", 
      "attrs": {
        "eps": "1e-06", 
        "fix_gamma": "False", 
        "momentum": "0.9995", 
        "use_global_stats": "True"
      }, 
      "inputs": [[233, 0, 0], [234, 0, 0], [235, 0, 0], [236, 0, 1], [237, 0, 1]]
    }, 
    {
      "op": "Activation", 
      "name": "res4b1_branch2a_relu", 
      "attrs": {"act_type": "relu"}, 
      "inputs": [[238, 0, 0]]
    }, 
    {
      "op": "null", 
      "name": "res4b1_branch2b_weight", 
      "attrs": {
        "dilate": "(2, 2)", 
        "kernel": "(3, 3)", 
        "no_bias": "True", 
        "num_filter": "256", 
        "pad": "(2, 2)", 
        "stride": "(1, 1)", 
        "workspace": "4096"
      }, 
      "inputs": []
    }, 
    {
      "op": "Convolution", 
      "name": "res4b1_branch2b", 
      "attrs": {
        "dilate": "(2, 2)", 
        "kernel": "(3, 3)", 
        "no_bias": "True", 
        "num_filter": "256", 
        "pad": "(2, 2)", 
        "stride": "(1, 1)", 
        "workspace": "4096"
      }, 
      "inputs": [[239, 0, 0], [240, 0, 0]]
    }, 
    {
      "op": "null", 
      "name": "bn4b1_branch2b_gamma", 
      "attrs": {
        "eps": "1e-06", 
        "fix_gamma": "False", 
        "momentum": "0.9995", 
        "use_global_stats": "True"
      }, 
      "inputs": []
    }, 
    {
      "op": "null", 
      "name": "bn4b1_branch2b_beta", 
      "attrs": {
        "eps": "1e-06", 
        "fix_gamma": "False", 
        "momentum": "0.9995", 
        "use_global_stats": "True"
      }, 
      "inputs": []
    }, 
    {
      "op": "null", 
      "name": "bn4b1_branch2b_moving_mean", 
      "attrs": {
        "__init__": "[\"zero\", {}]", 
        "eps": "1e-06", 
        "fix_gamma": "False", 
        "momentum": "0.9995", 
        "use_global_stats": "True"
      }, 
      "inputs": []
    }, 
    {
      "op": "null", 
      "name": "bn4b1_branch2b_moving_var", 
      "attrs": {
        "__init__": "[\"one\", {}]", 
        "eps": "1e-06", 
        "fix_gamma": "False", 
        "momentum": "0.9995", 
        "use_global_stats": "True"
      }, 
      "inputs": []
    }, 
    {
      "op": "BatchNorm", 
      "name": "bn4b1_branch2b", 
      "attrs": {
        "eps": "1e-06", 
        "fix_gamma": "False", 
        "momentum": "0.9995", 
        "use_global_stats": "True"
      }, 
      "inputs": [[241, 0, 0], [242, 0, 0], [243, 0, 0], [244, 0, 1], [245, 0, 1]]
    }, 
    {
      "op": "Activation", 
      "name": "res4b1_branch2b_relu", 
      "attrs": {"act_type": "relu"}, 
      "inputs": [[246, 0, 0]]
    }, 
    {
      "op": "null", 
      "name": "res4b1_branch2c_weight", 
      "attrs": {
        "dilate": "(1, 1)", 
        "kernel": "(1, 1)", 
        "no_bias": "True", 
        "num_filter": "1024", 
        "pad": "(0, 0)", 
        "stride": "(1, 1)", 
        "workspace": "4096"
      }, 
      "inputs": []
    }, 
    {
      "op": "Convolution", 
      "name": "res4b1_branch2c", 
      "attrs": {
        "dilate": "(1, 1)", 
        "kernel": "(1, 1)", 
        "no_bias": "True", 
        "num_filter": "1024", 
        "pad": "(0, 0)", 
        "stride": "(1, 1)", 
        "workspace": "4096"
      }, 
      "inputs": [[247, 0, 0], [248, 0, 0]]
    }, 
    {
      "op": "null", 
      "name": "bn4b1_branch2c_gamma", 
      "attrs": {
        "eps": "1e-06", 
        "fix_gamma": "False", 
        "momentum": "0.9995", 
        "use_global_stats": "True"
      }, 
      "inputs": []
    }, 
    {
      "op": "null", 
      "name": "bn4b1_branch2c_beta", 
      "attrs": {
        "eps": "1e-06", 
        "fix_gamma": "False", 
        "momentum": "0.9995", 
        "use_global_stats": "True"
      }, 
      "inputs": []
    }, 
    {
      "op": "null", 
      "name": "bn4b1_branch2c_moving_mean", 
      "attrs": {
        "__init__": "[\"zero\", {}]", 
        "eps": "1e-06", 
        "fix_gamma": "False", 
        "momentum": "0.9995", 
        "use_global_stats": "True"
      }, 
      "inputs": []
    }, 
    {
      "op": "null", 
      "name": "bn4b1_branch2c_moving_var", 
      "attrs": {
        "__init__": "[\"one\", {}]", 
        "eps": "1e-06", 
        "fix_gamma": "False", 
        "momentum": "0.9995", 
        "use_global_stats": "True"
      }, 
      "inputs": []
    }, 
    {
      "op": "BatchNorm", 
      "name": "bn4b1_branch2c", 
      "attrs": {
        "eps": "1e-06", 
        "fix_gamma": "False", 
        "momentum": "0.9995", 
        "use_global_stats": "True"
      }, 
      "inputs": [[249, 0, 0], [250, 0, 0], [251, 0, 0], [252, 0, 1], [253, 0, 1]]
    }, 
    {
      "op": "add_n", 
      "name": "res4b1", 
      "attrs": {"num_args": "2"}, 
      "inputs": [[231, 0, 0], [254, 0, 0]]
    }, 
    {
      "op": "Activation", 
      "name": "res4b1_relu", 
      "attrs": {"act_type": "relu"}, 
      "inputs": [[255, 0, 0]]
    }, 
    {
      "op": "null", 
      "name": "res4b2_branch2a_weight", 
      "attrs": {
        "dilate": "(1, 1)", 
        "kernel": "(1, 1)", 
        "no_bias": "True", 
        "num_filter": "256", 
        "pad": "(0, 0)", 
        "stride": "(1, 1)", 
        "workspace": "4096"
      }, 
      "inputs": []
    }, 
    {
      "op": "Convolution", 
      "name": "res4b2_branch2a", 
      "attrs": {
        "dilate": "(1, 1)", 
        "kernel": "(1, 1)", 
        "no_bias": "True", 
        "num_filter": "256", 
        "pad": "(0, 0)", 
        "stride": "(1, 1)", 
        "workspace": "4096"
      }, 
      "inputs": [[256, 0, 0], [257, 0, 0]]
    }, 
    {
      "op": "null", 
      "name": "bn4b2_branch2a_gamma", 
      "attrs": {
        "eps": "1e-06", 
        "fix_gamma": "False", 
        "momentum": "0.9995", 
        "use_global_stats": "True"
      }, 
      "inputs": []
    }, 
    {
      "op": "null", 
      "name": "bn4b2_branch2a_beta", 
      "attrs": {
        "eps": "1e-06", 
        "fix_gamma": "False", 
        "momentum": "0.9995", 
        "use_global_stats": "True"
      }, 
      "inputs": []
    }, 
    {
      "op": "null", 
      "name": "bn4b2_branch2a_moving_mean", 
      "attrs": {
        "__init__": "[\"zero\", {}]", 
        "eps": "1e-06", 
        "fix_gamma": "False", 
        "momentum": "0.9995", 
        "use_global_stats": "True"
      }, 
      "inputs": []
    }, 
    {
      "op": "null", 
      "name": "bn4b2_branch2a_moving_var", 
      "attrs": {
        "__init__": "[\"one\", {}]", 
        "eps": "1e-06", 
        "fix_gamma": "False", 
        "momentum": "0.9995", 
        "use_global_stats": "True"
      }, 
      "inputs": []
    }, 
    {
      "op": "BatchNorm", 
      "name": "bn4b2_branch2a", 
      "attrs": {
        "eps": "1e-06", 
        "fix_gamma": "False", 
        "momentum": "0.9995", 
        "use_global_stats": "True"
      }, 
      "inputs": [[258, 0, 0], [259, 0, 0], [260, 0, 0], [261, 0, 1], [262, 0, 1]]
    }, 
    {
      "op": "Activation", 
      "name": "res4b2_branch2a_relu", 
      "attrs": {"act_type": "relu"}, 
      "inputs": [[263, 0, 0]]
    }, 
    {
      "op": "null", 
      "name": "res4b2_branch2b_weight", 
      "attrs": {
        "dilate": "(5, 5)", 
        "kernel": "(3, 3)", 
        "no_bias": "True", 
        "num_filter": "256", 
        "pad": "(5, 5)", 
        "stride": "(1, 1)", 
        "workspace": "4096"
      }, 
      "inputs": []
    }, 
    {
      "op": "Convolution", 
      "name": "res4b2_branch2b", 
      "attrs": {
        "dilate": "(5, 5)", 
        "kernel": "(3, 3)", 
        "no_bias": "True", 
        "num_filter": "256", 
        "pad": "(5, 5)", 
        "stride": "(1, 1)", 
        "workspace": "4096"
      }, 
      "inputs": [[264, 0, 0], [265, 0, 0]]
    }, 
    {
      "op": "null", 
      "name": "bn4b2_branch2b_gamma", 
      "attrs": {
        "eps": "1e-06", 
        "fix_gamma": "False", 
        "momentum": "0.9995", 
        "use_global_stats": "True"
      }, 
      "inputs": []
    }, 
    {
      "op": "null", 
      "name": "bn4b2_branch2b_beta", 
      "attrs": {
        "eps": "1e-06", 
        "fix_gamma": "False", 
        "momentum": "0.9995", 
        "use_global_stats": "True"
      }, 
      "inputs": []
    }, 
    {
      "op": "null", 
      "name": "bn4b2_branch2b_moving_mean", 
      "attrs": {
        "__init__": "[\"zero\", {}]", 
        "eps": "1e-06", 
        "fix_gamma": "False", 
        "momentum": "0.9995", 
        "use_global_stats": "True"
      }, 
      "inputs": []
    }, 
    {
      "op": "null", 
      "name": "bn4b2_branch2b_moving_var", 
      "attrs": {
        "__init__": "[\"one\", {}]", 
        "eps": "1e-06", 
        "fix_gamma": "False", 
        "momentum": "0.9995", 
        "use_global_stats": "True"
      }, 
      "inputs": []
    }, 
    {
      "op": "BatchNorm", 
      "name": "bn4b2_branch2b", 
      "attrs": {
        "eps": "1e-06", 
        "fix_gamma": "False", 
        "momentum": "0.9995", 
        "use_global_stats": "True"
      }, 
      "inputs": [[266, 0, 0], [267, 0, 0], [268, 0, 0], [269, 0, 1], [270, 0, 1]]
    }, 
    {
      "op": "Activation", 
      "name": "res4b2_branch2b_relu", 
      "attrs": {"act_type": "relu"}, 
      "inputs": [[271, 0, 0]]
    }, 
    {
      "op": "null", 
      "name": "res4b2_branch2c_weight", 
      "attrs": {
        "dilate": "(1, 1)", 
        "kernel": "(1, 1)", 
        "no_bias": "True", 
        "num_filter": "1024", 
        "pad": "(0, 0)", 
        "stride": "(1, 1)", 
        "workspace": "4096"
      }, 
      "inputs": []
    }, 
    {
      "op": "Convolution", 
      "name": "res4b2_branch2c", 
      "attrs": {
        "dilate": "(1, 1)", 
        "kernel": "(1, 1)", 
        "no_bias": "True", 
        "num_filter": "1024", 
        "pad": "(0, 0)", 
        "stride": "(1, 1)", 
        "workspace": "4096"
      }, 
      "inputs": [[272, 0, 0], [273, 0, 0]]
    }, 
    {
      "op": "null", 
      "name": "bn4b2_branch2c_gamma", 
      "attrs": {
        "eps": "1e-06", 
        "fix_gamma": "False", 
        "momentum": "0.9995", 
        "use_global_stats": "True"
      }, 
      "inputs": []
    }, 
    {
      "op": "null", 
      "name": "bn4b2_branch2c_beta", 
      "attrs": {
        "eps": "1e-06", 
        "fix_gamma": "False", 
        "momentum": "0.9995", 
        "use_global_stats": "True"
      }, 
      "inputs": []
    }, 
    {
      "op": "null", 
      "name": "bn4b2_branch2c_moving_mean", 
      "attrs": {
        "__init__": "[\"zero\", {}]", 
        "eps": "1e-06", 
        "fix_gamma": "False", 
        "momentum": "0.9995", 
        "use_global_stats": "True"
      }, 
      "inputs": []
    }, 
    {
      "op": "null", 
      "name": "bn4b2_branch2c_moving_var", 
      "attrs": {
        "__init__": "[\"one\", {}]", 
        "eps": "1e-06", 
        "fix_gamma": "False", 
        "momentum": "0.9995", 
        "use_global_stats": "True"
      }, 
      "inputs": []
    }, 
    {
      "op": "BatchNorm", 
      "name": "bn4b2_branch2c", 
      "attrs": {
        "eps": "1e-06", 
        "fix_gamma": "False", 
        "momentum": "0.9995", 
        "use_global_stats": "True"
      }, 
      "inputs": [[274, 0, 0], [275, 0, 0], [276, 0, 0], [277, 0, 1], [278, 0, 1]]
    }, 
    {
      "op": "add_n", 
      "name": "res4b2", 
      "attrs": {"num_args": "2"}, 
      "inputs": [[256, 0, 0], [279, 0, 0]]
    }, 
    {
      "op": "Activation", 
      "name": "res4b2_relu", 
      "attrs": {"act_type": "relu"}, 
      "inputs": [[280, 0, 0]]
    }, 
    {
      "op": "null", 
      "name": "res4b3_branch2a_weight", 
      "attrs": {
        "dilate": "(1, 1)", 
        "kernel": "(1, 1)", 
        "no_bias": "True", 
        "num_filter": "256", 
        "pad": "(0, 0)", 
        "stride": "(1, 1)", 
        "workspace": "4096"
      }, 
      "inputs": []
    }, 
    {
      "op": "Convolution", 
      "name": "res4b3_branch2a", 
      "attrs": {
        "dilate": "(1, 1)", 
        "kernel": "(1, 1)", 
        "no_bias": "True", 
        "num_filter": "256", 
        "pad": "(0, 0)", 
        "stride": "(1, 1)", 
        "workspace": "4096"
      }, 
      "inputs": [[281, 0, 0], [282, 0, 0]]
    }, 
    {
      "op": "null", 
      "name": "bn4b3_branch2a_gamma", 
      "attrs": {
        "eps": "1e-06", 
        "fix_gamma": "False", 
        "momentum": "0.9995", 
        "use_global_stats": "True"
      }, 
      "inputs": []
    }, 
    {
      "op": "null", 
      "name": "bn4b3_branch2a_beta", 
      "attrs": {
        "eps": "1e-06", 
        "fix_gamma": "False", 
        "momentum": "0.9995", 
        "use_global_stats": "True"
      }, 
      "inputs": []
    }, 
    {
      "op": "null", 
      "name": "bn4b3_branch2a_moving_mean", 
      "attrs": {
        "__init__": "[\"zero\", {}]", 
        "eps": "1e-06", 
        "fix_gamma": "False", 
        "momentum": "0.9995", 
        "use_global_stats": "True"
      }, 
      "inputs": []
    }, 
    {
      "op": "null", 
      "name": "bn4b3_branch2a_moving_var", 
      "attrs": {
        "__init__": "[\"one\", {}]", 
        "eps": "1e-06", 
        "fix_gamma": "False", 
        "momentum": "0.9995", 
        "use_global_stats": "True"
      }, 
      "inputs": []
    }, 
    {
      "op": "BatchNorm", 
      "name": "bn4b3_branch2a", 
      "attrs": {
        "eps": "1e-06", 
        "fix_gamma": "False", 
        "momentum": "0.9995", 
        "use_global_stats": "True"
      }, 
      "inputs": [[283, 0, 0], [284, 0, 0], [285, 0, 0], [286, 0, 1], [287, 0, 1]]
    }, 
    {
      "op": "Activation", 
      "name": "res4b3_branch2a_relu", 
      "attrs": {"act_type": "relu"}, 
      "inputs": [[288, 0, 0]]
    }, 
    {
      "op": "null", 
      "name": "res4b3_branch2b_weight", 
      "attrs": {
        "dilate": "(9, 9)", 
        "kernel": "(3, 3)", 
        "no_bias": "True", 
        "num_filter": "256", 
        "pad": "(9, 9)", 
        "stride": "(1, 1)", 
        "workspace": "4096"
      }, 
      "inputs": []
    }, 
    {
      "op": "Convolution", 
      "name": "res4b3_branch2b", 
      "attrs": {
        "dilate": "(9, 9)", 
        "kernel": "(3, 3)", 
        "no_bias": "True", 
        "num_filter": "256", 
        "pad": "(9, 9)", 
        "stride": "(1, 1)", 
        "workspace": "4096"
      }, 
      "inputs": [[289, 0, 0], [290, 0, 0]]
    }, 
    {
      "op": "null", 
      "name": "bn4b3_branch2b_gamma", 
      "attrs": {
        "eps": "1e-06", 
        "fix_gamma": "False", 
        "momentum": "0.9995", 
        "use_global_stats": "True"
      }, 
      "inputs": []
    }, 
    {
      "op": "null", 
      "name": "bn4b3_branch2b_beta", 
      "attrs": {
        "eps": "1e-06", 
        "fix_gamma": "False", 
        "momentum": "0.9995", 
        "use_global_stats": "True"
      }, 
      "inputs": []
    }, 
    {
      "op": "null", 
      "name": "bn4b3_branch2b_moving_mean", 
      "attrs": {
        "__init__": "[\"zero\", {}]", 
        "eps": "1e-06", 
        "fix_gamma": "False", 
        "momentum": "0.9995", 
        "use_global_stats": "True"
      }, 
      "inputs": []
    }, 
    {
      "op": "null", 
      "name": "bn4b3_branch2b_moving_var", 
      "attrs": {
        "__init__": "[\"one\", {}]", 
        "eps": "1e-06", 
        "fix_gamma": "False", 
        "momentum": "0.9995", 
        "use_global_stats": "True"
      }, 
      "inputs": []
    }, 
    {
      "op": "BatchNorm", 
      "name": "bn4b3_branch2b", 
      "attrs": {
        "eps": "1e-06", 
        "fix_gamma": "False", 
        "momentum": "0.9995", 
        "use_global_stats": "True"
      }, 
      "inputs": [[291, 0, 0], [292, 0, 0], [293, 0, 0], [294, 0, 1], [295, 0, 1]]
    }, 
    {
      "op": "Activation", 
      "name": "res4b3_branch2b_relu", 
      "attrs": {"act_type": "relu"}, 
      "inputs": [[296, 0, 0]]
    }, 
    {
      "op": "null", 
      "name": "res4b3_branch2c_weight", 
      "attrs": {
        "dilate": "(1, 1)", 
        "kernel": "(1, 1)", 
        "no_bias": "True", 
        "num_filter": "1024", 
        "pad": "(0, 0)", 
        "stride": "(1, 1)", 
        "workspace": "4096"
      }, 
      "inputs": []
    }, 
    {
      "op": "Convolution", 
      "name": "res4b3_branch2c", 
      "attrs": {
        "dilate": "(1, 1)", 
        "kernel": "(1, 1)", 
        "no_bias": "True", 
        "num_filter": "1024", 
        "pad": "(0, 0)", 
        "stride": "(1, 1)", 
        "workspace": "4096"
      }, 
      "inputs": [[297, 0, 0], [298, 0, 0]]
    }, 
    {
      "op": "null", 
      "name": "bn4b3_branch2c_gamma", 
      "attrs": {
        "eps": "1e-06", 
        "fix_gamma": "False", 
        "momentum": "0.9995", 
        "use_global_stats": "True"
      }, 
      "inputs": []
    }, 
    {
      "op": "null", 
      "name": "bn4b3_branch2c_beta", 
      "attrs": {
        "eps": "1e-06", 
        "fix_gamma": "False", 
        "momentum": "0.9995", 
        "use_global_stats": "True"
      }, 
      "inputs": []
    }, 
    {
      "op": "null", 
      "name": "bn4b3_branch2c_moving_mean", 
      "attrs": {
        "__init__": "[\"zero\", {}]", 
        "eps": "1e-06", 
        "fix_gamma": "False", 
        "momentum": "0.9995", 
        "use_global_stats": "True"
      }, 
      "inputs": []
    }, 
    {
      "op": "null", 
      "name": "bn4b3_branch2c_moving_var", 
      "attrs": {
        "__init__": "[\"one\", {}]", 
        "eps": "1e-06", 
        "fix_gamma": "False", 
        "momentum": "0.9995", 
        "use_global_stats": "True"
      }, 
      "inputs": []
    }, 
    {
      "op": "BatchNorm", 
      "name": "bn4b3_branch2c", 
      "attrs": {
        "eps": "1e-06", 
        "fix_gamma": "False", 
        "momentum": "0.9995", 
        "use_global_stats": "True"
      }, 
      "inputs": [[299, 0, 0], [300, 0, 0], [301, 0, 0], [302, 0, 1], [303, 0, 1]]
    }, 
    {
      "op": "add_n", 
      "name": "res4b3", 
      "attrs": {"num_args": "2"}, 
      "inputs": [[281, 0, 0], [304, 0, 0]]
    }, 
    {
      "op": "Activation", 
      "name": "res4b3_relu", 
      "attrs": {"act_type": "relu"}, 
      "inputs": [[305, 0, 0]]
    }, 
    {
      "op": "null", 
      "name": "res4b4_branch2a_weight", 
      "attrs": {
        "dilate": "(1, 1)", 
        "kernel": "(1, 1)", 
        "no_bias": "True", 
        "num_filter": "256", 
        "pad": "(0, 0)", 
        "stride": "(1, 1)", 
        "workspace": "4096"
      }, 
      "inputs": []
    }, 
    {
      "op": "Convolution", 
      "name": "res4b4_branch2a", 
      "attrs": {
        "dilate": "(1, 1)", 
        "kernel": "(1, 1)", 
        "no_bias": "True", 
        "num_filter": "256", 
        "pad": "(0, 0)", 
        "stride": "(1, 1)", 
        "workspace": "4096"
      }, 
      "inputs": [[306, 0, 0], [307, 0, 0]]
    }, 
    {
      "op": "null", 
      "name": "bn4b4_branch2a_gamma", 
      "attrs": {
        "eps": "1e-06", 
        "fix_gamma": "False", 
        "momentum": "0.9995", 
        "use_global_stats": "True"
      }, 
      "inputs": []
    }, 
    {
      "op": "null", 
      "name": "bn4b4_branch2a_beta", 
      "attrs": {
        "eps": "1e-06", 
        "fix_gamma": "False", 
        "momentum": "0.9995", 
        "use_global_stats": "True"
      }, 
      "inputs": []
    }, 
    {
      "op": "null", 
      "name": "bn4b4_branch2a_moving_mean", 
      "attrs": {
        "__init__": "[\"zero\", {}]", 
        "eps": "1e-06", 
        "fix_gamma": "False", 
        "momentum": "0.9995", 
        "use_global_stats": "True"
      }, 
      "inputs": []
    }, 
    {
      "op": "null", 
      "name": "bn4b4_branch2a_moving_var", 
      "attrs": {
        "__init__": "[\"one\", {}]", 
        "eps": "1e-06", 
        "fix_gamma": "False", 
        "momentum": "0.9995", 
        "use_global_stats": "True"
      }, 
      "inputs": []
    }, 
    {
      "op": "BatchNorm", 
      "name": "bn4b4_branch2a", 
      "attrs": {
        "eps": "1e-06", 
        "fix_gamma": "False", 
        "momentum": "0.9995", 
        "use_global_stats": "True"
      }, 
      "inputs": [[308, 0, 0], [309, 0, 0], [310, 0, 0], [311, 0, 1], [312, 0, 1]]
    }, 
    {
      "op": "Activation", 
      "name": "res4b4_branch2a_relu", 
      "attrs": {"act_type": "relu"}, 
      "inputs": [[313, 0, 0]]
    }, 
    {
      "op": "null", 
      "name": "res4b4_branch2b_weight", 
      "attrs": {
        "dilate": "(1, 1)", 
        "kernel": "(3, 3)", 
        "no_bias": "True", 
        "num_filter": "256", 
        "pad": "(1, 1)", 
        "stride": "(1, 1)", 
        "workspace": "4096"
      }, 
      "inputs": []
    }, 
    {
      "op": "Convolution", 
      "name": "res4b4_branch2b", 
      "attrs": {
        "dilate": "(1, 1)", 
        "kernel": "(3, 3)", 
        "no_bias": "True", 
        "num_filter": "256", 
        "pad": "(1, 1)", 
        "stride": "(1, 1)", 
        "workspace": "4096"
      }, 
      "inputs": [[314, 0, 0], [315, 0, 0]]
    }, 
    {
      "op": "null", 
      "name": "bn4b4_branch2b_gamma", 
      "attrs": {
        "eps": "1e-06", 
        "fix_gamma": "False", 
        "momentum": "0.9995", 
        "use_global_stats": "True"
      }, 
      "inputs": []
    }, 
    {
      "op": "null", 
      "name": "bn4b4_branch2b_beta", 
      "attrs": {
        "eps": "1e-06", 
        "fix_gamma": "False", 
        "momentum": "0.9995", 
        "use_global_stats": "True"
      }, 
      "inputs": []
    }, 
    {
      "op": "null", 
      "name": "bn4b4_branch2b_moving_mean", 
      "attrs": {
        "__init__": "[\"zero\", {}]", 
        "eps": "1e-06", 
        "fix_gamma": "False", 
        "momentum": "0.9995", 
        "use_global_stats": "True"
      }, 
      "inputs": []
    }, 
    {
      "op": "null", 
      "name": "bn4b4_branch2b_moving_var", 
      "attrs": {
        "__init__": "[\"one\", {}]", 
        "eps": "1e-06", 
        "fix_gamma": "False", 
        "momentum": "0.9995", 
        "use_global_stats": "True"
      }, 
      "inputs": []
    }, 
    {
      "op": "BatchNorm", 
      "name": "bn4b4_branch2b", 
      "attrs": {
        "eps": "1e-06", 
        "fix_gamma": "False", 
        "momentum": "0.9995", 
        "use_global_stats": "True"
      }, 
      "inputs": [[316, 0, 0], [317, 0, 0], [318, 0, 0], [319, 0, 1], [320, 0, 1]]
    }, 
    {
      "op": "Activation", 
      "name": "res4b4_branch2b_relu", 
      "attrs": {"act_type": "relu"}, 
      "inputs": [[321, 0, 0]]
    }, 
    {
      "op": "null", 
      "name": "res4b4_branch2c_weight", 
      "attrs": {
        "dilate": "(1, 1)", 
        "kernel": "(1, 1)", 
        "no_bias": "True", 
        "num_filter": "1024", 
        "pad": "(0, 0)", 
        "stride": "(1, 1)", 
        "workspace": "4096"
      }, 
      "inputs": []
    }, 
    {
      "op": "Convolution", 
      "name": "res4b4_branch2c", 
      "attrs": {
        "dilate": "(1, 1)", 
        "kernel": "(1, 1)", 
        "no_bias": "True", 
        "num_filter": "1024", 
        "pad": "(0, 0)", 
        "stride": "(1, 1)", 
        "workspace": "4096"
      }, 
      "inputs": [[322, 0, 0], [323, 0, 0]]
    }, 
    {
      "op": "null", 
      "name": "bn4b4_branch2c_gamma", 
      "attrs": {
        "eps": "1e-06", 
        "fix_gamma": "False", 
        "momentum": "0.9995", 
        "use_global_stats": "True"
      }, 
      "inputs": []
    }, 
    {
      "op": "null", 
      "name": "bn4b4_branch2c_beta", 
      "attrs": {
        "eps": "1e-06", 
        "fix_gamma": "False", 
        "momentum": "0.9995", 
        "use_global_stats": "True"
      }, 
      "inputs": []
    }, 
    {
      "op": "null", 
      "name": "bn4b4_branch2c_moving_mean", 
      "attrs": {
        "__init__": "[\"zero\", {}]", 
        "eps": "1e-06", 
        "fix_gamma": "False", 
        "momentum": "0.9995", 
        "use_global_stats": "True"
      }, 
      "inputs": []
    }, 
    {
      "op": "null", 
      "name": "bn4b4_branch2c_moving_var", 
      "attrs": {
        "__init__": "[\"one\", {}]", 
        "eps": "1e-06", 
        "fix_gamma": "False", 
        "momentum": "0.9995", 
        "use_global_stats": "True"
      }, 
      "inputs": []
    }, 
    {
      "op": "BatchNorm", 
      "name": "bn4b4_branch2c", 
      "attrs": {
        "eps": "1e-06", 
        "fix_gamma": "False", 
        "momentum": "0.9995", 
        "use_global_stats": "True"
      }, 
      "inputs": [[324, 0, 0], [325, 0, 0], [326, 0, 0], [327, 0, 1], [328, 0, 1]]
    }, 
    {
      "op": "add_n", 
      "name": "res4b4", 
      "attrs": {"num_args": "2"}, 
      "inputs": [[306, 0, 0], [329, 0, 0]]
    }, 
    {
      "op": "Activation", 
      "name": "res4b4_relu", 
      "attrs": {"act_type": "relu"}, 
      "inputs": [[330, 0, 0]]
    }, 
    {
      "op": "null", 
      "name": "res4b5_branch2a_weight", 
      "attrs": {
        "dilate": "(1, 1)", 
        "kernel": "(1, 1)", 
        "no_bias": "True", 
        "num_filter": "256", 
        "pad": "(0, 0)", 
        "stride": "(1, 1)", 
        "workspace": "4096"
      }, 
      "inputs": []
    }, 
    {
      "op": "Convolution", 
      "name": "res4b5_branch2a", 
      "attrs": {
        "dilate": "(1, 1)", 
        "kernel": "(1, 1)", 
        "no_bias": "True", 
        "num_filter": "256", 
        "pad": "(0, 0)", 
        "stride": "(1, 1)", 
        "workspace": "4096"
      }, 
      "inputs": [[331, 0, 0], [332, 0, 0]]
    }, 
    {
      "op": "null", 
      "name": "bn4b5_branch2a_gamma", 
      "attrs": {
        "eps": "1e-06", 
        "fix_gamma": "False", 
        "momentum": "0.9995", 
        "use_global_stats": "True"
      }, 
      "inputs": []
    }, 
    {
      "op": "null", 
      "name": "bn4b5_branch2a_beta", 
      "attrs": {
        "eps": "1e-06", 
        "fix_gamma": "False", 
        "momentum": "0.9995", 
        "use_global_stats": "True"
      }, 
      "inputs": []
    }, 
    {
      "op": "null", 
      "name": "bn4b5_branch2a_moving_mean", 
      "attrs": {
        "__init__": "[\"zero\", {}]", 
        "eps": "1e-06", 
        "fix_gamma": "False", 
        "momentum": "0.9995", 
        "use_global_stats": "True"
      }, 
      "inputs": []
    }, 
    {
      "op": "null", 
      "name": "bn4b5_branch2a_moving_var", 
      "attrs": {
        "__init__": "[\"one\", {}]", 
        "eps": "1e-06", 
        "fix_gamma": "False", 
        "momentum": "0.9995", 
        "use_global_stats": "True"
      }, 
      "inputs": []
    }, 
    {
      "op": "BatchNorm", 
      "name": "bn4b5_branch2a", 
      "attrs": {
        "eps": "1e-06", 
        "fix_gamma": "False", 
        "momentum": "0.9995", 
        "use_global_stats": "True"
      }, 
      "inputs": [[333, 0, 0], [334, 0, 0], [335, 0, 0], [336, 0, 1], [337, 0, 1]]
    }, 
    {
      "op": "Activation", 
      "name": "res4b5_branch2a_relu", 
      "attrs": {"act_type": "relu"}, 
      "inputs": [[338, 0, 0]]
    }, 
    {
      "op": "null", 
      "name": "res4b5_branch2b_weight", 
      "attrs": {
        "dilate": "(2, 2)", 
        "kernel": "(3, 3)", 
        "no_bias": "True", 
        "num_filter": "256", 
        "pad": "(2, 2)", 
        "stride": "(1, 1)", 
        "workspace": "4096"
      }, 
      "inputs": []
    }, 
    {
      "op": "Convolution", 
      "name": "res4b5_branch2b", 
      "attrs": {
        "dilate": "(2, 2)", 
        "kernel": "(3, 3)", 
        "no_bias": "True", 
        "num_filter": "256", 
        "pad": "(2, 2)", 
        "stride": "(1, 1)", 
        "workspace": "4096"
      }, 
      "inputs": [[339, 0, 0], [340, 0, 0]]
    }, 
    {
      "op": "null", 
      "name": "bn4b5_branch2b_gamma", 
      "attrs": {
        "eps": "1e-06", 
        "fix_gamma": "False", 
        "momentum": "0.9995", 
        "use_global_stats": "True"
      }, 
      "inputs": []
    }, 
    {
      "op": "null", 
      "name": "bn4b5_branch2b_beta", 
      "attrs": {
        "eps": "1e-06", 
        "fix_gamma": "False", 
        "momentum": "0.9995", 
        "use_global_stats": "True"
      }, 
      "inputs": []
    }, 
    {
      "op": "null", 
      "name": "bn4b5_branch2b_moving_mean", 
      "attrs": {
        "__init__": "[\"zero\", {}]", 
        "eps": "1e-06", 
        "fix_gamma": "False", 
        "momentum": "0.9995", 
        "use_global_stats": "True"
      }, 
      "inputs": []
    }, 
    {
      "op": "null", 
      "name": "bn4b5_branch2b_moving_var", 
      "attrs": {
        "__init__": "[\"one\", {}]", 
        "eps": "1e-06", 
        "fix_gamma": "False", 
        "momentum": "0.9995", 
        "use_global_stats": "True"
      }, 
      "inputs": []
    }, 
    {
      "op": "BatchNorm", 
      "name": "bn4b5_branch2b", 
      "attrs": {
        "eps": "1e-06", 
        "fix_gamma": "False", 
        "momentum": "0.9995", 
        "use_global_stats": "True"
      }, 
      "inputs": [[341, 0, 0], [342, 0, 0], [343, 0, 0], [344, 0, 1], [345, 0, 1]]
    }, 
    {
      "op": "Activation", 
      "name": "res4b5_branch2b_relu", 
      "attrs": {"act_type": "relu"}, 
      "inputs": [[346, 0, 0]]
    }, 
    {
      "op": "null", 
      "name": "res4b5_branch2c_weight", 
      "attrs": {
        "dilate": "(1, 1)", 
        "kernel": "(1, 1)", 
        "no_bias": "True", 
        "num_filter": "1024", 
        "pad": "(0, 0)", 
        "stride": "(1, 1)", 
        "workspace": "4096"
      }, 
      "inputs": []
    }, 
    {
      "op": "Convolution", 
      "name": "res4b5_branch2c", 
      "attrs": {
        "dilate": "(1, 1)", 
        "kernel": "(1, 1)", 
        "no_bias": "True", 
        "num_filter": "1024", 
        "pad": "(0, 0)", 
        "stride": "(1, 1)", 
        "workspace": "4096"
      }, 
      "inputs": [[347, 0, 0], [348, 0, 0]]
    }, 
    {
      "op": "null", 
      "name": "bn4b5_branch2c_gamma", 
      "attrs": {
        "eps": "1e-06", 
        "fix_gamma": "False", 
        "momentum": "0.9995", 
        "use_global_stats": "True"
      }, 
      "inputs": []
    }, 
    {
      "op": "null", 
      "name": "bn4b5_branch2c_beta", 
      "attrs": {
        "eps": "1e-06", 
        "fix_gamma": "False", 
        "momentum": "0.9995", 
        "use_global_stats": "True"
      }, 
      "inputs": []
    }, 
    {
      "op": "null", 
      "name": "bn4b5_branch2c_moving_mean", 
      "attrs": {
        "__init__": "[\"zero\", {}]", 
        "eps": "1e-06", 
        "fix_gamma": "False", 
        "momentum": "0.9995", 
        "use_global_stats": "True"
      }, 
      "inputs": []
    }, 
    {
      "op": "null", 
      "name": "bn4b5_branch2c_moving_var", 
      "attrs": {
        "__init__": "[\"one\", {}]", 
        "eps": "1e-06", 
        "fix_gamma": "False", 
        "momentum": "0.9995", 
        "use_global_stats": "True"
      }, 
      "inputs": []
    }, 
    {
      "op": "BatchNorm", 
      "name": "bn4b5_branch2c", 
      "attrs": {
        "eps": "1e-06", 
        "fix_gamma": "False", 
        "momentum": "0.9995", 
        "use_global_stats": "True"
      }, 
      "inputs": [[349, 0, 0], [350, 0, 0], [351, 0, 0], [352, 0, 1], [353, 0, 1]]
    }, 
    {
      "op": "add_n", 
      "name": "res4b5", 
      "attrs": {"num_args": "2"}, 
      "inputs": [[331, 0, 0], [354, 0, 0]]
    }, 
    {
      "op": "Activation", 
      "name": "res4b5_relu", 
      "attrs": {"act_type": "relu"}, 
      "inputs": [[355, 0, 0]]
    }, 
    {
      "op": "null", 
      "name": "res4b6_branch2a_weight", 
      "attrs": {
        "dilate": "(1, 1)", 
        "kernel": "(1, 1)", 
        "no_bias": "True", 
        "num_filter": "256", 
        "pad": "(0, 0)", 
        "stride": "(1, 1)", 
        "workspace": "4096"
      }, 
      "inputs": []
    }, 
    {
      "op": "Convolution", 
      "name": "res4b6_branch2a", 
      "attrs": {
        "dilate": "(1, 1)", 
        "kernel": "(1, 1)", 
        "no_bias": "True", 
        "num_filter": "256", 
        "pad": "(0, 0)", 
        "stride": "(1, 1)", 
        "workspace": "4096"
      }, 
      "inputs": [[356, 0, 0], [357, 0, 0]]
    }, 
    {
      "op": "null", 
      "name": "bn4b6_branch2a_gamma", 
      "attrs": {
        "eps": "1e-06", 
        "fix_gamma": "False", 
        "momentum": "0.9995", 
        "use_global_stats": "True"
      }, 
      "inputs": []
    }, 
    {
      "op": "null", 
      "name": "bn4b6_branch2a_beta", 
      "attrs": {
        "eps": "1e-06", 
        "fix_gamma": "False", 
        "momentum": "0.9995", 
        "use_global_stats": "True"
      }, 
      "inputs": []
    }, 
    {
      "op": "null", 
      "name": "bn4b6_branch2a_moving_mean", 
      "attrs": {
        "__init__": "[\"zero\", {}]", 
        "eps": "1e-06", 
        "fix_gamma": "False", 
        "momentum": "0.9995", 
        "use_global_stats": "True"
      }, 
      "inputs": []
    }, 
    {
      "op": "null", 
      "name": "bn4b6_branch2a_moving_var", 
      "attrs": {
        "__init__": "[\"one\", {}]", 
        "eps": "1e-06", 
        "fix_gamma": "False", 
        "momentum": "0.9995", 
        "use_global_stats": "True"
      }, 
      "inputs": []
    }, 
    {
      "op": "BatchNorm", 
      "name": "bn4b6_branch2a", 
      "attrs": {
        "eps": "1e-06", 
        "fix_gamma": "False", 
        "momentum": "0.9995", 
        "use_global_stats": "True"
      }, 
      "inputs": [[358, 0, 0], [359, 0, 0], [360, 0, 0], [361, 0, 1], [362, 0, 1]]
    }, 
    {
      "op": "Activation", 
      "name": "res4b6_branch2a_relu", 
      "attrs": {"act_type": "relu"}, 
      "inputs": [[363, 0, 0]]
    }, 
    {
      "op": "null", 
      "name": "res4b6_branch2b_weight", 
      "attrs": {
        "dilate": "(5, 5)", 
        "kernel": "(3, 3)", 
        "no_bias": "True", 
        "num_filter": "256", 
        "pad": "(5, 5)", 
        "stride": "(1, 1)", 
        "workspace": "4096"
      }, 
      "inputs": []
    }, 
    {
      "op": "Convolution", 
      "name": "res4b6_branch2b", 
      "attrs": {
        "dilate": "(5, 5)", 
        "kernel": "(3, 3)", 
        "no_bias": "True", 
        "num_filter": "256", 
        "pad": "(5, 5)", 
        "stride": "(1, 1)", 
        "workspace": "4096"
      }, 
      "inputs": [[364, 0, 0], [365, 0, 0]]
    }, 
    {
      "op": "null", 
      "name": "bn4b6_branch2b_gamma", 
      "attrs": {
        "eps": "1e-06", 
        "fix_gamma": "False", 
        "momentum": "0.9995", 
        "use_global_stats": "True"
      }, 
      "inputs": []
    }, 
    {
      "op": "null", 
      "name": "bn4b6_branch2b_beta", 
      "attrs": {
        "eps": "1e-06", 
        "fix_gamma": "False", 
        "momentum": "0.9995", 
        "use_global_stats": "True"
      }, 
      "inputs": []
    }, 
    {
      "op": "null", 
      "name": "bn4b6_branch2b_moving_mean", 
      "attrs": {
        "__init__": "[\"zero\", {}]", 
        "eps": "1e-06", 
        "fix_gamma": "False", 
        "momentum": "0.9995", 
        "use_global_stats": "True"
      }, 
      "inputs": []
    }, 
    {
      "op": "null", 
      "name": "bn4b6_branch2b_moving_var", 
      "attrs": {
        "__init__": "[\"one\", {}]", 
        "eps": "1e-06", 
        "fix_gamma": "False", 
        "momentum": "0.9995", 
        "use_global_stats": "True"
      }, 
      "inputs": []
    }, 
    {
      "op": "BatchNorm", 
      "name": "bn4b6_branch2b", 
      "attrs": {
        "eps": "1e-06", 
        "fix_gamma": "False", 
        "momentum": "0.9995", 
        "use_global_stats": "True"
      }, 
      "inputs": [[366, 0, 0], [367, 0, 0], [368, 0, 0], [369, 0, 1], [370, 0, 1]]
    }, 
    {
      "op": "Activation", 
      "name": "res4b6_branch2b_relu", 
      "attrs": {"act_type": "relu"}, 
      "inputs": [[371, 0, 0]]
    }, 
    {
      "op": "null", 
      "name": "res4b6_branch2c_weight", 
      "attrs": {
        "dilate": "(1, 1)", 
        "kernel": "(1, 1)", 
        "no_bias": "True", 
        "num_filter": "1024", 
        "pad": "(0, 0)", 
        "stride": "(1, 1)", 
        "workspace": "4096"
      }, 
      "inputs": []
    }, 
    {
      "op": "Convolution", 
      "name": "res4b6_branch2c", 
      "attrs": {
        "dilate": "(1, 1)", 
        "kernel": "(1, 1)", 
        "no_bias": "True", 
        "num_filter": "1024", 
        "pad": "(0, 0)", 
        "stride": "(1, 1)", 
        "workspace": "4096"
      }, 
      "inputs": [[372, 0, 0], [373, 0, 0]]
    }, 
    {
      "op": "null", 
      "name": "bn4b6_branch2c_gamma", 
      "attrs": {
        "eps": "1e-06", 
        "fix_gamma": "False", 
        "momentum": "0.9995", 
        "use_global_stats": "True"
      }, 
      "inputs": []
    }, 
    {
      "op": "null", 
      "name": "bn4b6_branch2c_beta", 
      "attrs": {
        "eps": "1e-06", 
        "fix_gamma": "False", 
        "momentum": "0.9995", 
        "use_global_stats": "True"
      }, 
      "inputs": []
    }, 
    {
      "op": "null", 
      "name": "bn4b6_branch2c_moving_mean", 
      "attrs": {
        "__init__": "[\"zero\", {}]", 
        "eps": "1e-06", 
        "fix_gamma": "False", 
        "momentum": "0.9995", 
        "use_global_stats": "True"
      }, 
      "inputs": []
    }, 
    {
      "op": "null", 
      "name": "bn4b6_branch2c_moving_var", 
      "attrs": {
        "__init__": "[\"one\", {}]", 
        "eps": "1e-06", 
        "fix_gamma": "False", 
        "momentum": "0.9995", 
        "use_global_stats": "True"
      }, 
      "inputs": []
    }, 
    {
      "op": "BatchNorm", 
      "name": "bn4b6_branch2c", 
      "attrs": {
        "eps": "1e-06", 
        "fix_gamma": "False", 
        "momentum": "0.9995", 
        "use_global_stats": "True"
      }, 
      "inputs": [[374, 0, 0], [375, 0, 0], [376, 0, 0], [377, 0, 1], [378, 0, 1]]
    }, 
    {
      "op": "add_n", 
      "name": "res4b6", 
      "attrs": {"num_args": "2"}, 
      "inputs": [[356, 0, 0], [379, 0, 0]]
    }, 
    {
      "op": "Activation", 
      "name": "res4b6_relu", 
      "attrs": {"act_type": "relu"}, 
      "inputs": [[380, 0, 0]]
    }, 
    {
      "op": "null", 
      "name": "res4b7_branch2a_weight", 
      "attrs": {
        "dilate": "(1, 1)", 
        "kernel": "(1, 1)", 
        "no_bias": "True", 
        "num_filter": "256", 
        "pad": "(0, 0)", 
        "stride": "(1, 1)", 
        "workspace": "4096"
      }, 
      "inputs": []
    }, 
    {
      "op": "Convolution", 
      "name": "res4b7_branch2a", 
      "attrs": {
        "dilate": "(1, 1)", 
        "kernel": "(1, 1)", 
        "no_bias": "True", 
        "num_filter": "256", 
        "pad": "(0, 0)", 
        "stride": "(1, 1)", 
        "workspace": "4096"
      }, 
      "inputs": [[381, 0, 0], [382, 0, 0]]
    }, 
    {
      "op": "null", 
      "name": "bn4b7_branch2a_gamma", 
      "attrs": {
        "eps": "1e-06", 
        "fix_gamma": "False", 
        "momentum": "0.9995", 
        "use_global_stats": "True"
      }, 
      "inputs": []
    }, 
    {
      "op": "null", 
      "name": "bn4b7_branch2a_beta", 
      "attrs": {
        "eps": "1e-06", 
        "fix_gamma": "False", 
        "momentum": "0.9995", 
        "use_global_stats": "True"
      }, 
      "inputs": []
    }, 
    {
      "op": "null", 
      "name": "bn4b7_branch2a_moving_mean", 
      "attrs": {
        "__init__": "[\"zero\", {}]", 
        "eps": "1e-06", 
        "fix_gamma": "False", 
        "momentum": "0.9995", 
        "use_global_stats": "True"
      }, 
      "inputs": []
    }, 
    {
      "op": "null", 
      "name": "bn4b7_branch2a_moving_var", 
      "attrs": {
        "__init__": "[\"one\", {}]", 
        "eps": "1e-06", 
        "fix_gamma": "False", 
        "momentum": "0.9995", 
        "use_global_stats": "True"
      }, 
      "inputs": []
    }, 
    {
      "op": "BatchNorm", 
      "name": "bn4b7_branch2a", 
      "attrs": {
        "eps": "1e-06", 
        "fix_gamma": "False", 
        "momentum": "0.9995", 
        "use_global_stats": "True"
      }, 
      "inputs": [[383, 0, 0], [384, 0, 0], [385, 0, 0], [386, 0, 1], [387, 0, 1]]
    }, 
    {
      "op": "Activation", 
      "name": "res4b7_branch2a_relu", 
      "attrs": {"act_type": "relu"}, 
      "inputs": [[388, 0, 0]]
    }, 
    {
      "op": "null", 
      "name": "res4b7_branch2b_weight", 
      "attrs": {
        "dilate": "(9, 9)", 
        "kernel": "(3, 3)", 
        "no_bias": "True", 
        "num_filter": "256", 
        "pad": "(9, 9)", 
        "stride": "(1, 1)", 
        "workspace": "4096"
      }, 
      "inputs": []
    }, 
    {
      "op": "Convolution", 
      "name": "res4b7_branch2b", 
      "attrs": {
        "dilate": "(9, 9)", 
        "kernel": "(3, 3)", 
        "no_bias": "True", 
        "num_filter": "256", 
        "pad": "(9, 9)", 
        "stride": "(1, 1)", 
        "workspace": "4096"
      }, 
      "inputs": [[389, 0, 0], [390, 0, 0]]
    }, 
    {
      "op": "null", 
      "name": "bn4b7_branch2b_gamma", 
      "attrs": {
        "eps": "1e-06", 
        "fix_gamma": "False", 
        "momentum": "0.9995", 
        "use_global_stats": "True"
      }, 
      "inputs": []
    }, 
    {
      "op": "null", 
      "name": "bn4b7_branch2b_beta", 
      "attrs": {
        "eps": "1e-06", 
        "fix_gamma": "False", 
        "momentum": "0.9995", 
        "use_global_stats": "True"
      }, 
      "inputs": []
    }, 
    {
      "op": "null", 
      "name": "bn4b7_branch2b_moving_mean", 
      "attrs": {
        "__init__": "[\"zero\", {}]", 
        "eps": "1e-06", 
        "fix_gamma": "False", 
        "momentum": "0.9995", 
        "use_global_stats": "True"
      }, 
      "inputs": []
    }, 
    {
      "op": "null", 
      "name": "bn4b7_branch2b_moving_var", 
      "attrs": {
        "__init__": "[\"one\", {}]", 
        "eps": "1e-06", 
        "fix_gamma": "False", 
        "momentum": "0.9995", 
        "use_global_stats": "True"
      }, 
      "inputs": []
    }, 
    {
      "op": "BatchNorm", 
      "name": "bn4b7_branch2b", 
      "attrs": {
        "eps": "1e-06", 
        "fix_gamma": "False", 
        "momentum": "0.9995", 
        "use_global_stats": "True"
      }, 
      "inputs": [[391, 0, 0], [392, 0, 0], [393, 0, 0], [394, 0, 1], [395, 0, 1]]
    }, 
    {
      "op": "Activation", 
      "name": "res4b7_branch2b_relu", 
      "attrs": {"act_type": "relu"}, 
      "inputs": [[396, 0, 0]]
    }, 
    {
      "op": "null", 
      "name": "res4b7_branch2c_weight", 
      "attrs": {
        "dilate": "(1, 1)", 
        "kernel": "(1, 1)", 
        "no_bias": "True", 
        "num_filter": "1024", 
        "pad": "(0, 0)", 
        "stride": "(1, 1)", 
        "workspace": "4096"
      }, 
      "inputs": []
    }, 
    {
      "op": "Convolution", 
      "name": "res4b7_branch2c", 
      "attrs": {
        "dilate": "(1, 1)", 
        "kernel": "(1, 1)", 
        "no_bias": "True", 
        "num_filter": "1024", 
        "pad": "(0, 0)", 
        "stride": "(1, 1)", 
        "workspace": "4096"
      }, 
      "inputs": [[397, 0, 0], [398, 0, 0]]
    }, 
    {
      "op": "null", 
      "name": "bn4b7_branch2c_gamma", 
      "attrs": {
        "eps": "1e-06", 
        "fix_gamma": "False", 
        "momentum": "0.9995", 
        "use_global_stats": "True"
      }, 
      "inputs": []
    }, 
    {
      "op": "null", 
      "name": "bn4b7_branch2c_beta", 
      "attrs": {
        "eps": "1e-06", 
        "fix_gamma": "False", 
        "momentum": "0.9995", 
        "use_global_stats": "True"
      }, 
      "inputs": []
    }, 
    {
      "op": "null", 
      "name": "bn4b7_branch2c_moving_mean", 
      "attrs": {
        "__init__": "[\"zero\", {}]", 
        "eps": "1e-06", 
        "fix_gamma": "False", 
        "momentum": "0.9995", 
        "use_global_stats": "True"
      }, 
      "inputs": []
    }, 
    {
      "op": "null", 
      "name": "bn4b7_branch2c_moving_var", 
      "attrs": {
        "__init__": "[\"one\", {}]", 
        "eps": "1e-06", 
        "fix_gamma": "False", 
        "momentum": "0.9995", 
        "use_global_stats": "True"
      }, 
      "inputs": []
    }, 
    {
      "op": "BatchNorm", 
      "name": "bn4b7_branch2c", 
      "attrs": {
        "eps": "1e-06", 
        "fix_gamma": "False", 
        "momentum": "0.9995", 
        "use_global_stats": "True"
      }, 
      "inputs": [[399, 0, 0], [400, 0, 0], [401, 0, 0], [402, 0, 1], [403, 0, 1]]
    }, 
    {
      "op": "add_n", 
      "name": "res4b7", 
      "attrs": {"num_args": "2"}, 
      "inputs": [[381, 0, 0], [404, 0, 0]]
    }, 
    {
      "op": "Activation", 
      "name": "res4b7_relu", 
      "attrs": {"act_type": "relu"}, 
      "inputs": [[405, 0, 0]]
    }, 
    {
      "op": "null", 
      "name": "res4b8_branch2a_weight", 
      "attrs": {
        "dilate": "(1, 1)", 
        "kernel": "(1, 1)", 
        "no_bias": "True", 
        "num_filter": "256", 
        "pad": "(0, 0)", 
        "stride": "(1, 1)", 
        "workspace": "4096"
      }, 
      "inputs": []
    }, 
    {
      "op": "Convolution", 
      "name": "res4b8_branch2a", 
      "attrs": {
        "dilate": "(1, 1)", 
        "kernel": "(1, 1)", 
        "no_bias": "True", 
        "num_filter": "256", 
        "pad": "(0, 0)", 
        "stride": "(1, 1)", 
        "workspace": "4096"
      }, 
      "inputs": [[406, 0, 0], [407, 0, 0]]
    }, 
    {
      "op": "null", 
      "name": "bn4b8_branch2a_gamma", 
      "attrs": {
        "eps": "1e-06", 
        "fix_gamma": "False", 
        "momentum": "0.9995", 
        "use_global_stats": "True"
      }, 
      "inputs": []
    }, 
    {
      "op": "null", 
      "name": "bn4b8_branch2a_beta", 
      "attrs": {
        "eps": "1e-06", 
        "fix_gamma": "False", 
        "momentum": "0.9995", 
        "use_global_stats": "True"
      }, 
      "inputs": []
    }, 
    {
      "op": "null", 
      "name": "bn4b8_branch2a_moving_mean", 
      "attrs": {
        "__init__": "[\"zero\", {}]", 
        "eps": "1e-06", 
        "fix_gamma": "False", 
        "momentum": "0.9995", 
        "use_global_stats": "True"
      }, 
      "inputs": []
    }, 
    {
      "op": "null", 
      "name": "bn4b8_branch2a_moving_var", 
      "attrs": {
        "__init__": "[\"one\", {}]", 
        "eps": "1e-06", 
        "fix_gamma": "False", 
        "momentum": "0.9995", 
        "use_global_stats": "True"
      }, 
      "inputs": []
    }, 
    {
      "op": "BatchNorm", 
      "name": "bn4b8_branch2a", 
      "attrs": {
        "eps": "1e-06", 
        "fix_gamma": "False", 
        "momentum": "0.9995", 
        "use_global_stats": "True"
      }, 
      "inputs": [[408, 0, 0], [409, 0, 0], [410, 0, 0], [411, 0, 1], [412, 0, 1]]
    }, 
    {
      "op": "Activation", 
      "name": "res4b8_branch2a_relu", 
      "attrs": {"act_type": "relu"}, 
      "inputs": [[413, 0, 0]]
    }, 
    {
      "op": "null", 
      "name": "res4b8_branch2b_weight", 
      "attrs": {
        "dilate": "(1, 1)", 
        "kernel": "(3, 3)", 
        "no_bias": "True", 
        "num_filter": "256", 
        "pad": "(1, 1)", 
        "stride": "(1, 1)", 
        "workspace": "4096"
      }, 
      "inputs": []
    }, 
    {
      "op": "Convolution", 
      "name": "res4b8_branch2b", 
      "attrs": {
        "dilate": "(1, 1)", 
        "kernel": "(3, 3)", 
        "no_bias": "True", 
        "num_filter": "256", 
        "pad": "(1, 1)", 
        "stride": "(1, 1)", 
        "workspace": "4096"
      }, 
      "inputs": [[414, 0, 0], [415, 0, 0]]
    }, 
    {
      "op": "null", 
      "name": "bn4b8_branch2b_gamma", 
      "attrs": {
        "eps": "1e-06", 
        "fix_gamma": "False", 
        "momentum": "0.9995", 
        "use_global_stats": "True"
      }, 
      "inputs": []
    }, 
    {
      "op": "null", 
      "name": "bn4b8_branch2b_beta", 
      "attrs": {
        "eps": "1e-06", 
        "fix_gamma": "False", 
        "momentum": "0.9995", 
        "use_global_stats": "True"
      }, 
      "inputs": []
    }, 
    {
      "op": "null", 
      "name": "bn4b8_branch2b_moving_mean", 
      "attrs": {
        "__init__": "[\"zero\", {}]", 
        "eps": "1e-06", 
        "fix_gamma": "False", 
        "momentum": "0.9995", 
        "use_global_stats": "True"
      }, 
      "inputs": []
    }, 
    {
      "op": "null", 
      "name": "bn4b8_branch2b_moving_var", 
      "attrs": {
        "__init__": "[\"one\", {}]", 
        "eps": "1e-06", 
        "fix_gamma": "False", 
        "momentum": "0.9995", 
        "use_global_stats": "True"
      }, 
      "inputs": []
    }, 
    {
      "op": "BatchNorm", 
      "name": "bn4b8_branch2b", 
      "attrs": {
        "eps": "1e-06", 
        "fix_gamma": "False", 
        "momentum": "0.9995", 
        "use_global_stats": "True"
      }, 
      "inputs": [[416, 0, 0], [417, 0, 0], [418, 0, 0], [419, 0, 1], [420, 0, 1]]
    }, 
    {
      "op": "Activation", 
      "name": "res4b8_branch2b_relu", 
      "attrs": {"act_type": "relu"}, 
      "inputs": [[421, 0, 0]]
    }, 
    {
      "op": "null", 
      "name": "res4b8_branch2c_weight", 
      "attrs": {
        "dilate": "(1, 1)", 
        "kernel": "(1, 1)", 
        "no_bias": "True", 
        "num_filter": "1024", 
        "pad": "(0, 0)", 
        "stride": "(1, 1)", 
        "workspace": "4096"
      }, 
      "inputs": []
    }, 
    {
      "op": "Convolution", 
      "name": "res4b8_branch2c", 
      "attrs": {
        "dilate": "(1, 1)", 
        "kernel": "(1, 1)", 
        "no_bias": "True", 
        "num_filter": "1024", 
        "pad": "(0, 0)", 
        "stride": "(1, 1)", 
        "workspace": "4096"
      }, 
      "inputs": [[422, 0, 0], [423, 0, 0]]
    }, 
    {
      "op": "null", 
      "name": "bn4b8_branch2c_gamma", 
      "attrs": {
        "eps": "1e-06", 
        "fix_gamma": "False", 
        "momentum": "0.9995", 
        "use_global_stats": "True"
      }, 
      "inputs": []
    }, 
    {
      "op": "null", 
      "name": "bn4b8_branch2c_beta", 
      "attrs": {
        "eps": "1e-06", 
        "fix_gamma": "False", 
        "momentum": "0.9995", 
        "use_global_stats": "True"
      }, 
      "inputs": []
    }, 
    {
      "op": "null", 
      "name": "bn4b8_branch2c_moving_mean", 
      "attrs": {
        "__init__": "[\"zero\", {}]", 
        "eps": "1e-06", 
        "fix_gamma": "False", 
        "momentum": "0.9995", 
        "use_global_stats": "True"
      }, 
      "inputs": []
    }, 
    {
      "op": "null", 
      "name": "bn4b8_branch2c_moving_var", 
      "attrs": {
        "__init__": "[\"one\", {}]", 
        "eps": "1e-06", 
        "fix_gamma": "False", 
        "momentum": "0.9995", 
        "use_global_stats": "True"
      }, 
      "inputs": []
    }, 
    {
      "op": "BatchNorm", 
      "name": "bn4b8_branch2c", 
      "attrs": {
        "eps": "1e-06", 
        "fix_gamma": "False", 
        "momentum": "0.9995", 
        "use_global_stats": "True"
      }, 
      "inputs": [[424, 0, 0], [425, 0, 0], [426, 0, 0], [427, 0, 1], [428, 0, 1]]
    }, 
    {
      "op": "add_n", 
      "name": "res4b8", 
      "attrs": {"num_args": "2"}, 
      "inputs": [[406, 0, 0], [429, 0, 0]]
    }, 
    {
      "op": "Activation", 
      "name": "res4b8_relu", 
      "attrs": {"act_type": "relu"}, 
      "inputs": [[430, 0, 0]]
    }, 
    {
      "op": "null", 
      "name": "res4b9_branch2a_weight", 
      "attrs": {
        "dilate": "(1, 1)", 
        "kernel": "(1, 1)", 
        "no_bias": "True", 
        "num_filter": "256", 
        "pad": "(0, 0)", 
        "stride": "(1, 1)", 
        "workspace": "4096"
      }, 
      "inputs": []
    }, 
    {
      "op": "Convolution", 
      "name": "res4b9_branch2a", 
      "attrs": {
        "dilate": "(1, 1)", 
        "kernel": "(1, 1)", 
        "no_bias": "True", 
        "num_filter": "256", 
        "pad": "(0, 0)", 
        "stride": "(1, 1)", 
        "workspace": "4096"
      }, 
      "inputs": [[431, 0, 0], [432, 0, 0]]
    }, 
    {
      "op": "null", 
      "name": "bn4b9_branch2a_gamma", 
      "attrs": {
        "eps": "1e-06", 
        "fix_gamma": "False", 
        "momentum": "0.9995", 
        "use_global_stats": "True"
      }, 
      "inputs": []
    }, 
    {
      "op": "null", 
      "name": "bn4b9_branch2a_beta", 
      "attrs": {
        "eps": "1e-06", 
        "fix_gamma": "False", 
        "momentum": "0.9995", 
        "use_global_stats": "True"
      }, 
      "inputs": []
    }, 
    {
      "op": "null", 
      "name": "bn4b9_branch2a_moving_mean", 
      "attrs": {
        "__init__": "[\"zero\", {}]", 
        "eps": "1e-06", 
        "fix_gamma": "False", 
        "momentum": "0.9995", 
        "use_global_stats": "True"
      }, 
      "inputs": []
    }, 
    {
      "op": "null", 
      "name": "bn4b9_branch2a_moving_var", 
      "attrs": {
        "__init__": "[\"one\", {}]", 
        "eps": "1e-06", 
        "fix_gamma": "False", 
        "momentum": "0.9995", 
        "use_global_stats": "True"
      }, 
      "inputs": []
    }, 
    {
      "op": "BatchNorm", 
      "name": "bn4b9_branch2a", 
      "attrs": {
        "eps": "1e-06", 
        "fix_gamma": "False", 
        "momentum": "0.9995", 
        "use_global_stats": "True"
      }, 
      "inputs": [[433, 0, 0], [434, 0, 0], [435, 0, 0], [436, 0, 1], [437, 0, 1]]
    }, 
    {
      "op": "Activation", 
      "name": "res4b9_branch2a_relu", 
      "attrs": {"act_type": "relu"}, 
      "inputs": [[438, 0, 0]]
    }, 
    {
      "op": "null", 
      "name": "res4b9_branch2b_weight", 
      "attrs": {
        "dilate": "(2, 2)", 
        "kernel": "(3, 3)", 
        "no_bias": "True", 
        "num_filter": "256", 
        "pad": "(2, 2)", 
        "stride": "(1, 1)", 
        "workspace": "4096"
      }, 
      "inputs": []
    }, 
    {
      "op": "Convolution", 
      "name": "res4b9_branch2b", 
      "attrs": {
        "dilate": "(2, 2)", 
        "kernel": "(3, 3)", 
        "no_bias": "True", 
        "num_filter": "256", 
        "pad": "(2, 2)", 
        "stride": "(1, 1)", 
        "workspace": "4096"
      }, 
      "inputs": [[439, 0, 0], [440, 0, 0]]
    }, 
    {
      "op": "null", 
      "name": "bn4b9_branch2b_gamma", 
      "attrs": {
        "eps": "1e-06", 
        "fix_gamma": "False", 
        "momentum": "0.9995", 
        "use_global_stats": "True"
      }, 
      "inputs": []
    }, 
    {
      "op": "null", 
      "name": "bn4b9_branch2b_beta", 
      "attrs": {
        "eps": "1e-06", 
        "fix_gamma": "False", 
        "momentum": "0.9995", 
        "use_global_stats": "True"
      }, 
      "inputs": []
    }, 
    {
      "op": "null", 
      "name": "bn4b9_branch2b_moving_mean", 
      "attrs": {
        "__init__": "[\"zero\", {}]", 
        "eps": "1e-06", 
        "fix_gamma": "False", 
        "momentum": "0.9995", 
        "use_global_stats": "True"
      }, 
      "inputs": []
    }, 
    {
      "op": "null", 
      "name": "bn4b9_branch2b_moving_var", 
      "attrs": {
        "__init__": "[\"one\", {}]", 
        "eps": "1e-06", 
        "fix_gamma": "False", 
        "momentum": "0.9995", 
        "use_global_stats": "True"
      }, 
      "inputs": []
    }, 
    {
      "op": "BatchNorm", 
      "name": "bn4b9_branch2b", 
      "attrs": {
        "eps": "1e-06", 
        "fix_gamma": "False", 
        "momentum": "0.9995", 
        "use_global_stats": "True"
      }, 
      "inputs": [[441, 0, 0], [442, 0, 0], [443, 0, 0], [444, 0, 1], [445, 0, 1]]
    }, 
    {
      "op": "Activation", 
      "name": "res4b9_branch2b_relu", 
      "attrs": {"act_type": "relu"}, 
      "inputs": [[446, 0, 0]]
    }, 
    {
      "op": "null", 
      "name": "res4b9_branch2c_weight", 
      "attrs": {
        "dilate": "(1, 1)", 
        "kernel": "(1, 1)", 
        "no_bias": "True", 
        "num_filter": "1024", 
        "pad": "(0, 0)", 
        "stride": "(1, 1)", 
        "workspace": "4096"
      }, 
      "inputs": []
    }, 
    {
      "op": "Convolution", 
      "name": "res4b9_branch2c", 
      "attrs": {
        "dilate": "(1, 1)", 
        "kernel": "(1, 1)", 
        "no_bias": "True", 
        "num_filter": "1024", 
        "pad": "(0, 0)", 
        "stride": "(1, 1)", 
        "workspace": "4096"
      }, 
      "inputs": [[447, 0, 0], [448, 0, 0]]
    }, 
    {
      "op": "null", 
      "name": "bn4b9_branch2c_gamma", 
      "attrs": {
        "eps": "1e-06", 
        "fix_gamma": "False", 
        "momentum": "0.9995", 
        "use_global_stats": "True"
      }, 
      "inputs": []
    }, 
    {
      "op": "null", 
      "name": "bn4b9_branch2c_beta", 
      "attrs": {
        "eps": "1e-06", 
        "fix_gamma": "False", 
        "momentum": "0.9995", 
        "use_global_stats": "True"
      }, 
      "inputs": []
    }, 
    {
      "op": "null", 
      "name": "bn4b9_branch2c_moving_mean", 
      "attrs": {
        "__init__": "[\"zero\", {}]", 
        "eps": "1e-06", 
        "fix_gamma": "False", 
        "momentum": "0.9995", 
        "use_global_stats": "True"
      }, 
      "inputs": []
    }, 
    {
      "op": "null", 
      "name": "bn4b9_branch2c_moving_var", 
      "attrs": {
        "__init__": "[\"one\", {}]", 
        "eps": "1e-06", 
        "fix_gamma": "False", 
        "momentum": "0.9995", 
        "use_global_stats": "True"
      }, 
      "inputs": []
    }, 
    {
      "op": "BatchNorm", 
      "name": "bn4b9_branch2c", 
      "attrs": {
        "eps": "1e-06", 
        "fix_gamma": "False", 
        "momentum": "0.9995", 
        "use_global_stats": "True"
      }, 
      "inputs": [[449, 0, 0], [450, 0, 0], [451, 0, 0], [452, 0, 1], [453, 0, 1]]
    }, 
    {
      "op": "add_n", 
      "name": "res4b9", 
      "attrs": {"num_args": "2"}, 
      "inputs": [[431, 0, 0], [454, 0, 0]]
    }, 
    {
      "op": "Activation", 
      "name": "res4b9_relu", 
      "attrs": {"act_type": "relu"}, 
      "inputs": [[455, 0, 0]]
    }, 
    {
      "op": "null", 
      "name": "res4b10_branch2a_weight", 
      "attrs": {
        "dilate": "(1, 1)", 
        "kernel": "(1, 1)", 
        "no_bias": "True", 
        "num_filter": "256", 
        "pad": "(0, 0)", 
        "stride": "(1, 1)", 
        "workspace": "4096"
      }, 
      "inputs": []
    }, 
    {
      "op": "Convolution", 
      "name": "res4b10_branch2a", 
      "attrs": {
        "dilate": "(1, 1)", 
        "kernel": "(1, 1)", 
        "no_bias": "True", 
        "num_filter": "256", 
        "pad": "(0, 0)", 
        "stride": "(1, 1)", 
        "workspace": "4096"
      }, 
      "inputs": [[456, 0, 0], [457, 0, 0]]
    }, 
    {
      "op": "null", 
      "name": "bn4b10_branch2a_gamma", 
      "attrs": {
        "eps": "1e-06", 
        "fix_gamma": "False", 
        "momentum": "0.9995", 
        "use_global_stats": "True"
      }, 
      "inputs": []
    }, 
    {
      "op": "null", 
      "name": "bn4b10_branch2a_beta", 
      "attrs": {
        "eps": "1e-06", 
        "fix_gamma": "False", 
        "momentum": "0.9995", 
        "use_global_stats": "True"
      }, 
      "inputs": []
    }, 
    {
      "op": "null", 
      "name": "bn4b10_branch2a_moving_mean", 
      "attrs": {
        "__init__": "[\"zero\", {}]", 
        "eps": "1e-06", 
        "fix_gamma": "False", 
        "momentum": "0.9995", 
        "use_global_stats": "True"
      }, 
      "inputs": []
    }, 
    {
      "op": "null", 
      "name": "bn4b10_branch2a_moving_var", 
      "attrs": {
        "__init__": "[\"one\", {}]", 
        "eps": "1e-06", 
        "fix_gamma": "False", 
        "momentum": "0.9995", 
        "use_global_stats": "True"
      }, 
      "inputs": []
    }, 
    {
      "op": "BatchNorm", 
      "name": "bn4b10_branch2a", 
      "attrs": {
        "eps": "1e-06", 
        "fix_gamma": "False", 
        "momentum": "0.9995", 
        "use_global_stats": "True"
      }, 
      "inputs": [[458, 0, 0], [459, 0, 0], [460, 0, 0], [461, 0, 1], [462, 0, 1]]
    }, 
    {
      "op": "Activation", 
      "name": "res4b10_branch2a_relu", 
      "attrs": {"act_type": "relu"}, 
      "inputs": [[463, 0, 0]]
    }, 
    {
      "op": "null", 
      "name": "res4b10_branch2b_weight", 
      "attrs": {
        "dilate": "(5, 5)", 
        "kernel": "(3, 3)", 
        "no_bias": "True", 
        "num_filter": "256", 
        "pad": "(5, 5)", 
        "stride": "(1, 1)", 
        "workspace": "4096"
      }, 
      "inputs": []
    }, 
    {
      "op": "Convolution", 
      "name": "res4b10_branch2b", 
      "attrs": {
        "dilate": "(5, 5)", 
        "kernel": "(3, 3)", 
        "no_bias": "True", 
        "num_filter": "256", 
        "pad": "(5, 5)", 
        "stride": "(1, 1)", 
        "workspace": "4096"
      }, 
      "inputs": [[464, 0, 0], [465, 0, 0]]
    }, 
    {
      "op": "null", 
      "name": "bn4b10_branch2b_gamma", 
      "attrs": {
        "eps": "1e-06", 
        "fix_gamma": "False", 
        "momentum": "0.9995", 
        "use_global_stats": "True"
      }, 
      "inputs": []
    }, 
    {
      "op": "null", 
      "name": "bn4b10_branch2b_beta", 
      "attrs": {
        "eps": "1e-06", 
        "fix_gamma": "False", 
        "momentum": "0.9995", 
        "use_global_stats": "True"
      }, 
      "inputs": []
    }, 
    {
      "op": "null", 
      "name": "bn4b10_branch2b_moving_mean", 
      "attrs": {
        "__init__": "[\"zero\", {}]", 
        "eps": "1e-06", 
        "fix_gamma": "False", 
        "momentum": "0.9995", 
        "use_global_stats": "True"
      }, 
      "inputs": []
    }, 
    {
      "op": "null", 
      "name": "bn4b10_branch2b_moving_var", 
      "attrs": {
        "__init__": "[\"one\", {}]", 
        "eps": "1e-06", 
        "fix_gamma": "False", 
        "momentum": "0.9995", 
        "use_global_stats": "True"
      }, 
      "inputs": []
    }, 
    {
      "op": "BatchNorm", 
      "name": "bn4b10_branch2b", 
      "attrs": {
        "eps": "1e-06", 
        "fix_gamma": "False", 
        "momentum": "0.9995", 
        "use_global_stats": "True"
      }, 
      "inputs": [[466, 0, 0], [467, 0, 0], [468, 0, 0], [469, 0, 1], [470, 0, 1]]
    }, 
    {
      "op": "Activation", 
      "name": "res4b10_branch2b_relu", 
      "attrs": {"act_type": "relu"}, 
      "inputs": [[471, 0, 0]]
    }, 
    {
      "op": "null", 
      "name": "res4b10_branch2c_weight", 
      "attrs": {
        "dilate": "(1, 1)", 
        "kernel": "(1, 1)", 
        "no_bias": "True", 
        "num_filter": "1024", 
        "pad": "(0, 0)", 
        "stride": "(1, 1)", 
        "workspace": "4096"
      }, 
      "inputs": []
    }, 
    {
      "op": "Convolution", 
      "name": "res4b10_branch2c", 
      "attrs": {
        "dilate": "(1, 1)", 
        "kernel": "(1, 1)", 
        "no_bias": "True", 
        "num_filter": "1024", 
        "pad": "(0, 0)", 
        "stride": "(1, 1)", 
        "workspace": "4096"
      }, 
      "inputs": [[472, 0, 0], [473, 0, 0]]
    }, 
    {
      "op": "null", 
      "name": "bn4b10_branch2c_gamma", 
      "attrs": {
        "eps": "1e-06", 
        "fix_gamma": "False", 
        "momentum": "0.9995", 
        "use_global_stats": "True"
      }, 
      "inputs": []
    }, 
    {
      "op": "null", 
      "name": "bn4b10_branch2c_beta", 
      "attrs": {
        "eps": "1e-06", 
        "fix_gamma": "False", 
        "momentum": "0.9995", 
        "use_global_stats": "True"
      }, 
      "inputs": []
    }, 
    {
      "op": "null", 
      "name": "bn4b10_branch2c_moving_mean", 
      "attrs": {
        "__init__": "[\"zero\", {}]", 
        "eps": "1e-06", 
        "fix_gamma": "False", 
        "momentum": "0.9995", 
        "use_global_stats": "True"
      }, 
      "inputs": []
    }, 
    {
      "op": "null", 
      "name": "bn4b10_branch2c_moving_var", 
      "attrs": {
        "__init__": "[\"one\", {}]", 
        "eps": "1e-06", 
        "fix_gamma": "False", 
        "momentum": "0.9995", 
        "use_global_stats": "True"
      }, 
      "inputs": []
    }, 
    {
      "op": "BatchNorm", 
      "name": "bn4b10_branch2c", 
      "attrs": {
        "eps": "1e-06", 
        "fix_gamma": "False", 
        "momentum": "0.9995", 
        "use_global_stats": "True"
      }, 
      "inputs": [[474, 0, 0], [475, 0, 0], [476, 0, 0], [477, 0, 1], [478, 0, 1]]
    }, 
    {
      "op": "add_n", 
      "name": "res4b10", 
      "attrs": {"num_args": "2"}, 
      "inputs": [[456, 0, 0], [479, 0, 0]]
    }, 
    {
      "op": "Activation", 
      "name": "res4b10_relu", 
      "attrs": {"act_type": "relu"}, 
      "inputs": [[480, 0, 0]]
    }, 
    {
      "op": "null", 
      "name": "res4b11_branch2a_weight", 
      "attrs": {
        "dilate": "(1, 1)", 
        "kernel": "(1, 1)", 
        "no_bias": "True", 
        "num_filter": "256", 
        "pad": "(0, 0)", 
        "stride": "(1, 1)", 
        "workspace": "4096"
      }, 
      "inputs": []
    }, 
    {
      "op": "Convolution", 
      "name": "res4b11_branch2a", 
      "attrs": {
        "dilate": "(1, 1)", 
        "kernel": "(1, 1)", 
        "no_bias": "True", 
        "num_filter": "256", 
        "pad": "(0, 0)", 
        "stride": "(1, 1)", 
        "workspace": "4096"
      }, 
      "inputs": [[481, 0, 0], [482, 0, 0]]
    }, 
    {
      "op": "null", 
      "name": "bn4b11_branch2a_gamma", 
      "attrs": {
        "eps": "1e-06", 
        "fix_gamma": "False", 
        "momentum": "0.9995", 
        "use_global_stats": "True"
      }, 
      "inputs": []
    }, 
    {
      "op": "null", 
      "name": "bn4b11_branch2a_beta", 
      "attrs": {
        "eps": "1e-06", 
        "fix_gamma": "False", 
        "momentum": "0.9995", 
        "use_global_stats": "True"
      }, 
      "inputs": []
    }, 
    {
      "op": "null", 
      "name": "bn4b11_branch2a_moving_mean", 
      "attrs": {
        "__init__": "[\"zero\", {}]", 
        "eps": "1e-06", 
        "fix_gamma": "False", 
        "momentum": "0.9995", 
        "use_global_stats": "True"
      }, 
      "inputs": []
    }, 
    {
      "op": "null", 
      "name": "bn4b11_branch2a_moving_var", 
      "attrs": {
        "__init__": "[\"one\", {}]", 
        "eps": "1e-06", 
        "fix_gamma": "False", 
        "momentum": "0.9995", 
        "use_global_stats": "True"
      }, 
      "inputs": []
    }, 
    {
      "op": "BatchNorm", 
      "name": "bn4b11_branch2a", 
      "attrs": {
        "eps": "1e-06", 
        "fix_gamma": "False", 
        "momentum": "0.9995", 
        "use_global_stats": "True"
      }, 
      "inputs": [[483, 0, 0], [484, 0, 0], [485, 0, 0], [486, 0, 1], [487, 0, 1]]
    }, 
    {
      "op": "Activation", 
      "name": "res4b11_branch2a_relu", 
      "attrs": {"act_type": "relu"}, 
      "inputs": [[488, 0, 0]]
    }, 
    {
      "op": "null", 
      "name": "res4b11_branch2b_weight", 
      "attrs": {
        "dilate": "(9, 9)", 
        "kernel": "(3, 3)", 
        "no_bias": "True", 
        "num_filter": "256", 
        "pad": "(9, 9)", 
        "stride": "(1, 1)", 
        "workspace": "4096"
      }, 
      "inputs": []
    }, 
    {
      "op": "Convolution", 
      "name": "res4b11_branch2b", 
      "attrs": {
        "dilate": "(9, 9)", 
        "kernel": "(3, 3)", 
        "no_bias": "True", 
        "num_filter": "256", 
        "pad": "(9, 9)", 
        "stride": "(1, 1)", 
        "workspace": "4096"
      }, 
      "inputs": [[489, 0, 0], [490, 0, 0]]
    }, 
    {
      "op": "null", 
      "name": "bn4b11_branch2b_gamma", 
      "attrs": {
        "eps": "1e-06", 
        "fix_gamma": "False", 
        "momentum": "0.9995", 
        "use_global_stats": "True"
      }, 
      "inputs": []
    }, 
    {
      "op": "null", 
      "name": "bn4b11_branch2b_beta", 
      "attrs": {
        "eps": "1e-06", 
        "fix_gamma": "False", 
        "momentum": "0.9995", 
        "use_global_stats": "True"
      }, 
      "inputs": []
    }, 
    {
      "op": "null", 
      "name": "bn4b11_branch2b_moving_mean", 
      "attrs": {
        "__init__": "[\"zero\", {}]", 
        "eps": "1e-06", 
        "fix_gamma": "False", 
        "momentum": "0.9995", 
        "use_global_stats": "True"
      }, 
      "inputs": []
    }, 
    {
      "op": "null", 
      "name": "bn4b11_branch2b_moving_var", 
      "attrs": {
        "__init__": "[\"one\", {}]", 
        "eps": "1e-06", 
        "fix_gamma": "False", 
        "momentum": "0.9995", 
        "use_global_stats": "True"
      }, 
      "inputs": []
    }, 
    {
      "op": "BatchNorm", 
      "name": "bn4b11_branch2b", 
      "attrs": {
        "eps": "1e-06", 
        "fix_gamma": "False", 
        "momentum": "0.9995", 
        "use_global_stats": "True"
      }, 
      "inputs": [[491, 0, 0], [492, 0, 0], [493, 0, 0], [494, 0, 1], [495, 0, 1]]
    }, 
    {
      "op": "Activation", 
      "name": "res4b11_branch2b_relu", 
      "attrs": {"act_type": "relu"}, 
      "inputs": [[496, 0, 0]]
    }, 
    {
      "op": "null", 
      "name": "res4b11_branch2c_weight", 
      "attrs": {
        "dilate": "(1, 1)", 
        "kernel": "(1, 1)", 
        "no_bias": "True", 
        "num_filter": "1024", 
        "pad": "(0, 0)", 
        "stride": "(1, 1)", 
        "workspace": "4096"
      }, 
      "inputs": []
    }, 
    {
      "op": "Convolution", 
      "name": "res4b11_branch2c", 
      "attrs": {
        "dilate": "(1, 1)", 
        "kernel": "(1, 1)", 
        "no_bias": "True", 
        "num_filter": "1024", 
        "pad": "(0, 0)", 
        "stride": "(1, 1)", 
        "workspace": "4096"
      }, 
      "inputs": [[497, 0, 0], [498, 0, 0]]
    }, 
    {
      "op": "null", 
      "name": "bn4b11_branch2c_gamma", 
      "attrs": {
        "eps": "1e-06", 
        "fix_gamma": "False", 
        "momentum": "0.9995", 
        "use_global_stats": "True"
      }, 
      "inputs": []
    }, 
    {
      "op": "null", 
      "name": "bn4b11_branch2c_beta", 
      "attrs": {
        "eps": "1e-06", 
        "fix_gamma": "False", 
        "momentum": "0.9995", 
        "use_global_stats": "True"
      }, 
      "inputs": []
    }, 
    {
      "op": "null", 
      "name": "bn4b11_branch2c_moving_mean", 
      "attrs": {
        "__init__": "[\"zero\", {}]", 
        "eps": "1e-06", 
        "fix_gamma": "False", 
        "momentum": "0.9995", 
        "use_global_stats": "True"
      }, 
      "inputs": []
    }, 
    {
      "op": "null", 
      "name": "bn4b11_branch2c_moving_var", 
      "attrs": {
        "__init__": "[\"one\", {}]", 
        "eps": "1e-06", 
        "fix_gamma": "False", 
        "momentum": "0.9995", 
        "use_global_stats": "True"
      }, 
      "inputs": []
    }, 
    {
      "op": "BatchNorm", 
      "name": "bn4b11_branch2c", 
      "attrs": {
        "eps": "1e-06", 
        "fix_gamma": "False", 
        "momentum": "0.9995", 
        "use_global_stats": "True"
      }, 
      "inputs": [[499, 0, 0], [500, 0, 0], [501, 0, 0], [502, 0, 1], [503, 0, 1]]
    }, 
    {
      "op": "add_n", 
      "name": "res4b11", 
      "attrs": {"num_args": "2"}, 
      "inputs": [[481, 0, 0], [504, 0, 0]]
    }, 
    {
      "op": "Activation", 
      "name": "res4b11_relu", 
      "attrs": {"act_type": "relu"}, 
      "inputs": [[505, 0, 0]]
    }, 
    {
      "op": "null", 
      "name": "res4b12_branch2a_weight", 
      "attrs": {
        "dilate": "(1, 1)", 
        "kernel": "(1, 1)", 
        "no_bias": "True", 
        "num_filter": "256", 
        "pad": "(0, 0)", 
        "stride": "(1, 1)", 
        "workspace": "4096"
      }, 
      "inputs": []
    }, 
    {
      "op": "Convolution", 
      "name": "res4b12_branch2a", 
      "attrs": {
        "dilate": "(1, 1)", 
        "kernel": "(1, 1)", 
        "no_bias": "True", 
        "num_filter": "256", 
        "pad": "(0, 0)", 
        "stride": "(1, 1)", 
        "workspace": "4096"
      }, 
      "inputs": [[506, 0, 0], [507, 0, 0]]
    }, 
    {
      "op": "null", 
      "name": "bn4b12_branch2a_gamma", 
      "attrs": {
        "eps": "1e-06", 
        "fix_gamma": "False", 
        "momentum": "0.9995", 
        "use_global_stats": "True"
      }, 
      "inputs": []
    }, 
    {
      "op": "null", 
      "name": "bn4b12_branch2a_beta", 
      "attrs": {
        "eps": "1e-06", 
        "fix_gamma": "False", 
        "momentum": "0.9995", 
        "use_global_stats": "True"
      }, 
      "inputs": []
    }, 
    {
      "op": "null", 
      "name": "bn4b12_branch2a_moving_mean", 
      "attrs": {
        "__init__": "[\"zero\", {}]", 
        "eps": "1e-06", 
        "fix_gamma": "False", 
        "momentum": "0.9995", 
        "use_global_stats": "True"
      }, 
      "inputs": []
    }, 
    {
      "op": "null", 
      "name": "bn4b12_branch2a_moving_var", 
      "attrs": {
        "__init__": "[\"one\", {}]", 
        "eps": "1e-06", 
        "fix_gamma": "False", 
        "momentum": "0.9995", 
        "use_global_stats": "True"
      }, 
      "inputs": []
    }, 
    {
      "op": "BatchNorm", 
      "name": "bn4b12_branch2a", 
      "attrs": {
        "eps": "1e-06", 
        "fix_gamma": "False", 
        "momentum": "0.9995", 
        "use_global_stats": "True"
      }, 
      "inputs": [[508, 0, 0], [509, 0, 0], [510, 0, 0], [511, 0, 1], [512, 0, 1]]
    }, 
    {
      "op": "Activation", 
      "name": "res4b12_branch2a_relu", 
      "attrs": {"act_type": "relu"}, 
      "inputs": [[513, 0, 0]]
    }, 
    {
      "op": "null", 
      "name": "res4b12_branch2b_weight", 
      "attrs": {
        "dilate": "(1, 1)", 
        "kernel": "(3, 3)", 
        "no_bias": "True", 
        "num_filter": "256", 
        "pad": "(1, 1)", 
        "stride": "(1, 1)", 
        "workspace": "4096"
      }, 
      "inputs": []
    }, 
    {
      "op": "Convolution", 
      "name": "res4b12_branch2b", 
      "attrs": {
        "dilate": "(1, 1)", 
        "kernel": "(3, 3)", 
        "no_bias": "True", 
        "num_filter": "256", 
        "pad": "(1, 1)", 
        "stride": "(1, 1)", 
        "workspace": "4096"
      }, 
      "inputs": [[514, 0, 0], [515, 0, 0]]
    }, 
    {
      "op": "null", 
      "name": "bn4b12_branch2b_gamma", 
      "attrs": {
        "eps": "1e-06", 
        "fix_gamma": "False", 
        "momentum": "0.9995", 
        "use_global_stats": "True"
      }, 
      "inputs": []
    }, 
    {
      "op": "null", 
      "name": "bn4b12_branch2b_beta", 
      "attrs": {
        "eps": "1e-06", 
        "fix_gamma": "False", 
        "momentum": "0.9995", 
        "use_global_stats": "True"
      }, 
      "inputs": []
    }, 
    {
      "op": "null", 
      "name": "bn4b12_branch2b_moving_mean", 
      "attrs": {
        "__init__": "[\"zero\", {}]", 
        "eps": "1e-06", 
        "fix_gamma": "False", 
        "momentum": "0.9995", 
        "use_global_stats": "True"
      }, 
      "inputs": []
    }, 
    {
      "op": "null", 
      "name": "bn4b12_branch2b_moving_var", 
      "attrs": {
        "__init__": "[\"one\", {}]", 
        "eps": "1e-06", 
        "fix_gamma": "False", 
        "momentum": "0.9995", 
        "use_global_stats": "True"
      }, 
      "inputs": []
    }, 
    {
      "op": "BatchNorm", 
      "name": "bn4b12_branch2b", 
      "attrs": {
        "eps": "1e-06", 
        "fix_gamma": "False", 
        "momentum": "0.9995", 
        "use_global_stats": "True"
      }, 
      "inputs": [[516, 0, 0], [517, 0, 0], [518, 0, 0], [519, 0, 1], [520, 0, 1]]
    }, 
    {
      "op": "Activation", 
      "name": "res4b12_branch2b_relu", 
      "attrs": {"act_type": "relu"}, 
      "inputs": [[521, 0, 0]]
    }, 
    {
      "op": "null", 
      "name": "res4b12_branch2c_weight", 
      "attrs": {
        "dilate": "(1, 1)", 
        "kernel": "(1, 1)", 
        "no_bias": "True", 
        "num_filter": "1024", 
        "pad": "(0, 0)", 
        "stride": "(1, 1)", 
        "workspace": "4096"
      }, 
      "inputs": []
    }, 
    {
      "op": "Convolution", 
      "name": "res4b12_branch2c", 
      "attrs": {
        "dilate": "(1, 1)", 
        "kernel": "(1, 1)", 
        "no_bias": "True", 
        "num_filter": "1024", 
        "pad": "(0, 0)", 
        "stride": "(1, 1)", 
        "workspace": "4096"
      }, 
      "inputs": [[522, 0, 0], [523, 0, 0]]
    }, 
    {
      "op": "null", 
      "name": "bn4b12_branch2c_gamma", 
      "attrs": {
        "eps": "1e-06", 
        "fix_gamma": "False", 
        "momentum": "0.9995", 
        "use_global_stats": "True"
      }, 
      "inputs": []
    }, 
    {
      "op": "null", 
      "name": "bn4b12_branch2c_beta", 
      "attrs": {
        "eps": "1e-06", 
        "fix_gamma": "False", 
        "momentum": "0.9995", 
        "use_global_stats": "True"
      }, 
      "inputs": []
    }, 
    {
      "op": "null", 
      "name": "bn4b12_branch2c_moving_mean", 
      "attrs": {
        "__init__": "[\"zero\", {}]", 
        "eps": "1e-06", 
        "fix_gamma": "False", 
        "momentum": "0.9995", 
        "use_global_stats": "True"
      }, 
      "inputs": []
    }, 
    {
      "op": "null", 
      "name": "bn4b12_branch2c_moving_var", 
      "attrs": {
        "__init__": "[\"one\", {}]", 
        "eps": "1e-06", 
        "fix_gamma": "False", 
        "momentum": "0.9995", 
        "use_global_stats": "True"
      }, 
      "inputs": []
    }, 
    {
      "op": "BatchNorm", 
      "name": "bn4b12_branch2c", 
      "attrs": {
        "eps": "1e-06", 
        "fix_gamma": "False", 
        "momentum": "0.9995", 
        "use_global_stats": "True"
      }, 
      "inputs": [[524, 0, 0], [525, 0, 0], [526, 0, 0], [527, 0, 1], [528, 0, 1]]
    }, 
    {
      "op": "add_n", 
      "name": "res4b12", 
      "attrs": {"num_args": "2"}, 
      "inputs": [[506, 0, 0], [529, 0, 0]]
    }, 
    {
      "op": "Activation", 
      "name": "res4b12_relu", 
      "attrs": {"act_type": "relu"}, 
      "inputs": [[530, 0, 0]]
    }, 
    {
      "op": "null", 
      "name": "res4b13_branch2a_weight", 
      "attrs": {
        "dilate": "(1, 1)", 
        "kernel": "(1, 1)", 
        "no_bias": "True", 
        "num_filter": "256", 
        "pad": "(0, 0)", 
        "stride": "(1, 1)", 
        "workspace": "4096"
      }, 
      "inputs": []
    }, 
    {
      "op": "Convolution", 
      "name": "res4b13_branch2a", 
      "attrs": {
        "dilate": "(1, 1)", 
        "kernel": "(1, 1)", 
        "no_bias": "True", 
        "num_filter": "256", 
        "pad": "(0, 0)", 
        "stride": "(1, 1)", 
        "workspace": "4096"
      }, 
      "inputs": [[531, 0, 0], [532, 0, 0]]
    }, 
    {
      "op": "null", 
      "name": "bn4b13_branch2a_gamma", 
      "attrs": {
        "eps": "1e-06", 
        "fix_gamma": "False", 
        "momentum": "0.9995", 
        "use_global_stats": "True"
      }, 
      "inputs": []
    }, 
    {
      "op": "null", 
      "name": "bn4b13_branch2a_beta", 
      "attrs": {
        "eps": "1e-06", 
        "fix_gamma": "False", 
        "momentum": "0.9995", 
        "use_global_stats": "True"
      }, 
      "inputs": []
    }, 
    {
      "op": "null", 
      "name": "bn4b13_branch2a_moving_mean", 
      "attrs": {
        "__init__": "[\"zero\", {}]", 
        "eps": "1e-06", 
        "fix_gamma": "False", 
        "momentum": "0.9995", 
        "use_global_stats": "True"
      }, 
      "inputs": []
    }, 
    {
      "op": "null", 
      "name": "bn4b13_branch2a_moving_var", 
      "attrs": {
        "__init__": "[\"one\", {}]", 
        "eps": "1e-06", 
        "fix_gamma": "False", 
        "momentum": "0.9995", 
        "use_global_stats": "True"
      }, 
      "inputs": []
    }, 
    {
      "op": "BatchNorm", 
      "name": "bn4b13_branch2a", 
      "attrs": {
        "eps": "1e-06", 
        "fix_gamma": "False", 
        "momentum": "0.9995", 
        "use_global_stats": "True"
      }, 
      "inputs": [[533, 0, 0], [534, 0, 0], [535, 0, 0], [536, 0, 1], [537, 0, 1]]
    }, 
    {
      "op": "Activation", 
      "name": "res4b13_branch2a_relu", 
      "attrs": {"act_type": "relu"}, 
      "inputs": [[538, 0, 0]]
    }, 
    {
      "op": "null", 
      "name": "res4b13_branch2b_weight", 
      "attrs": {
        "dilate": "(2, 2)", 
        "kernel": "(3, 3)", 
        "no_bias": "True", 
        "num_filter": "256", 
        "pad": "(2, 2)", 
        "stride": "(1, 1)", 
        "workspace": "4096"
      }, 
      "inputs": []
    }, 
    {
      "op": "Convolution", 
      "name": "res4b13_branch2b", 
      "attrs": {
        "dilate": "(2, 2)", 
        "kernel": "(3, 3)", 
        "no_bias": "True", 
        "num_filter": "256", 
        "pad": "(2, 2)", 
        "stride": "(1, 1)", 
        "workspace": "4096"
      }, 
      "inputs": [[539, 0, 0], [540, 0, 0]]
    }, 
    {
      "op": "null", 
      "name": "bn4b13_branch2b_gamma", 
      "attrs": {
        "eps": "1e-06", 
        "fix_gamma": "False", 
        "momentum": "0.9995", 
        "use_global_stats": "True"
      }, 
      "inputs": []
    }, 
    {
      "op": "null", 
      "name": "bn4b13_branch2b_beta", 
      "attrs": {
        "eps": "1e-06", 
        "fix_gamma": "False", 
        "momentum": "0.9995", 
        "use_global_stats": "True"
      }, 
      "inputs": []
    }, 
    {
      "op": "null", 
      "name": "bn4b13_branch2b_moving_mean", 
      "attrs": {
        "__init__": "[\"zero\", {}]", 
        "eps": "1e-06", 
        "fix_gamma": "False", 
        "momentum": "0.9995", 
        "use_global_stats": "True"
      }, 
      "inputs": []
    }, 
    {
      "op": "null", 
      "name": "bn4b13_branch2b_moving_var", 
      "attrs": {
        "__init__": "[\"one\", {}]", 
        "eps": "1e-06", 
        "fix_gamma": "False", 
        "momentum": "0.9995", 
        "use_global_stats": "True"
      }, 
      "inputs": []
    }, 
    {
      "op": "BatchNorm", 
      "name": "bn4b13_branch2b", 
      "attrs": {
        "eps": "1e-06", 
        "fix_gamma": "False", 
        "momentum": "0.9995", 
        "use_global_stats": "True"
      }, 
      "inputs": [[541, 0, 0], [542, 0, 0], [543, 0, 0], [544, 0, 1], [545, 0, 1]]
    }, 
    {
      "op": "Activation", 
      "name": "res4b13_branch2b_relu", 
      "attrs": {"act_type": "relu"}, 
      "inputs": [[546, 0, 0]]
    }, 
    {
      "op": "null", 
      "name": "res4b13_branch2c_weight", 
      "attrs": {
        "dilate": "(1, 1)", 
        "kernel": "(1, 1)", 
        "no_bias": "True", 
        "num_filter": "1024", 
        "pad": "(0, 0)", 
        "stride": "(1, 1)", 
        "workspace": "4096"
      }, 
      "inputs": []
    }, 
    {
      "op": "Convolution", 
      "name": "res4b13_branch2c", 
      "attrs": {
        "dilate": "(1, 1)", 
        "kernel": "(1, 1)", 
        "no_bias": "True", 
        "num_filter": "1024", 
        "pad": "(0, 0)", 
        "stride": "(1, 1)", 
        "workspace": "4096"
      }, 
      "inputs": [[547, 0, 0], [548, 0, 0]]
    }, 
    {
      "op": "null", 
      "name": "bn4b13_branch2c_gamma", 
      "attrs": {
        "eps": "1e-06", 
        "fix_gamma": "False", 
        "momentum": "0.9995", 
        "use_global_stats": "True"
      }, 
      "inputs": []
    }, 
    {
      "op": "null", 
      "name": "bn4b13_branch2c_beta", 
      "attrs": {
        "eps": "1e-06", 
        "fix_gamma": "False", 
        "momentum": "0.9995", 
        "use_global_stats": "True"
      }, 
      "inputs": []
    }, 
    {
      "op": "null", 
      "name": "bn4b13_branch2c_moving_mean", 
      "attrs": {
        "__init__": "[\"zero\", {}]", 
        "eps": "1e-06", 
        "fix_gamma": "False", 
        "momentum": "0.9995", 
        "use_global_stats": "True"
      }, 
      "inputs": []
    }, 
    {
      "op": "null", 
      "name": "bn4b13_branch2c_moving_var", 
      "attrs": {
        "__init__": "[\"one\", {}]", 
        "eps": "1e-06", 
        "fix_gamma": "False", 
        "momentum": "0.9995", 
        "use_global_stats": "True"
      }, 
      "inputs": []
    }, 
    {
      "op": "BatchNorm", 
      "name": "bn4b13_branch2c", 
      "attrs": {
        "eps": "1e-06", 
        "fix_gamma": "False", 
        "momentum": "0.9995", 
        "use_global_stats": "True"
      }, 
      "inputs": [[549, 0, 0], [550, 0, 0], [551, 0, 0], [552, 0, 1], [553, 0, 1]]
    }, 
    {
      "op": "add_n", 
      "name": "res4b13", 
      "attrs": {"num_args": "2"}, 
      "inputs": [[531, 0, 0], [554, 0, 0]]
    }, 
    {
      "op": "Activation", 
      "name": "res4b13_relu", 
      "attrs": {"act_type": "relu"}, 
      "inputs": [[555, 0, 0]]
    }, 
    {
      "op": "null", 
      "name": "res4b14_branch2a_weight", 
      "attrs": {
        "dilate": "(1, 1)", 
        "kernel": "(1, 1)", 
        "no_bias": "True", 
        "num_filter": "256", 
        "pad": "(0, 0)", 
        "stride": "(1, 1)", 
        "workspace": "4096"
      }, 
      "inputs": []
    }, 
    {
      "op": "Convolution", 
      "name": "res4b14_branch2a", 
      "attrs": {
        "dilate": "(1, 1)", 
        "kernel": "(1, 1)", 
        "no_bias": "True", 
        "num_filter": "256", 
        "pad": "(0, 0)", 
        "stride": "(1, 1)", 
        "workspace": "4096"
      }, 
      "inputs": [[556, 0, 0], [557, 0, 0]]
    }, 
    {
      "op": "null", 
      "name": "bn4b14_branch2a_gamma", 
      "attrs": {
        "eps": "1e-06", 
        "fix_gamma": "False", 
        "momentum": "0.9995", 
        "use_global_stats": "True"
      }, 
      "inputs": []
    }, 
    {
      "op": "null", 
      "name": "bn4b14_branch2a_beta", 
      "attrs": {
        "eps": "1e-06", 
        "fix_gamma": "False", 
        "momentum": "0.9995", 
        "use_global_stats": "True"
      }, 
      "inputs": []
    }, 
    {
      "op": "null", 
      "name": "bn4b14_branch2a_moving_mean", 
      "attrs": {
        "__init__": "[\"zero\", {}]", 
        "eps": "1e-06", 
        "fix_gamma": "False", 
        "momentum": "0.9995", 
        "use_global_stats": "True"
      }, 
      "inputs": []
    }, 
    {
      "op": "null", 
      "name": "bn4b14_branch2a_moving_var", 
      "attrs": {
        "__init__": "[\"one\", {}]", 
        "eps": "1e-06", 
        "fix_gamma": "False", 
        "momentum": "0.9995", 
        "use_global_stats": "True"
      }, 
      "inputs": []
    }, 
    {
      "op": "BatchNorm", 
      "name": "bn4b14_branch2a", 
      "attrs": {
…
        "use_global_stats": "True"
      }, 
      "inputs": []
    }, 
    {
      "op": "null", 
      "name": "bn4b21_branch2b_moving_var", 
      "attrs": {
        "__init__": "[\"one\", {}]", 
        "eps": "1e-06", 
        "fix_gamma": "False", 
        "momentum": "0.9995", 
        "use_global_stats": "True"
      }, 
      "inputs": []
    }, 
    {
      "op": "BatchNorm", 
      "name": "bn4b21_branch2b", 
      "attrs": {
        "eps": "1e-06", 
        "fix_gamma": "False", 
        "momentum": "0.9995", 
        "use_global_stats": "True"
      }, 
      "inputs": [[741, 0, 0], [742, 0, 0], [743, 0, 0], [744, 0, 1], [745, 0, 1]]
    }, 
    {
      "op": "Activation", 
      "name": "res4b21_branch2b_relu", 
      "attrs": {"act_type": "relu"}, 
      "inputs": [[746, 0, 0]]
    }, 
    {
      "op": "null", 
      "name": "res4b21_branch2c_weight", 
      "attrs": {
        "dilate": "(1, 1)", 
        "kernel": "(1, 1)", 
        "no_bias": "True", 
        "num_filter": "1024", 
        "pad": "(0, 0)", 
        "stride": "(1, 1)", 
        "workspace": "4096"
      }, 
      "inputs": []
    }, 
    {
      "op": "Convolution", 
      "name": "res4b21_branch2c", 
      "attrs": {
        "dilate": "(1, 1)", 
        "kernel": "(1, 1)", 
        "no_bias": "True", 
        "num_filter": "1024", 
        "pad": "(0, 0)", 
        "stride": "(1, 1)", 
        "workspace": "4096"
      }, 
      "inputs": [[747, 0, 0], [748, 0, 0]]
    }, 
    {
      "op": "null", 
      "name": "bn4b21_branch2c_gamma", 
      "attrs": {
        "eps": "1e-06", 
        "fix_gamma": "False", 
        "momentum": "0.9995", 
        "use_global_stats": "True"
      }, 
      "inputs": []
    }, 
    {
      "op": "null", 
      "name": "bn4b21_branch2c_beta", 
      "attrs": {
        "eps": "1e-06", 
        "fix_gamma": "False", 
        "momentum": "0.9995", 
        "use_global_stats": "True"
      }, 
      "inputs": []
    }, 
    {
      "op": "null", 
      "name": "bn4b21_branch2c_moving_mean", 
      "attrs": {
        "__init__": "[\"zero\", {}]", 
        "eps": "1e-06", 
        "fix_gamma": "False", 
        "momentum": "0.9995", 
        "use_global_stats": "True"
      }, 
      "inputs": []
    }, 
    {
      "op": "null", 
      "name": "bn4b21_branch2c_moving_var", 
      "attrs": {
        "__init__": "[\"one\", {}]", 
        "eps": "1e-06", 
        "fix_gamma": "False", 
        "momentum": "0.9995", 
        "use_global_stats": "True"
      }, 
      "inputs": []
    }, 
    {
      "op": "BatchNorm", 
      "name": "bn4b21_branch2c", 
      "attrs": {
        "eps": "1e-06", 
        "fix_gamma": "False", 
        "momentum": "0.9995", 
        "use_global_stats": "True"
      }, 
      "inputs": [[749, 0, 0], [750, 0, 0], [751, 0, 0], [752, 0, 1], [753, 0, 1]]
    }, 
    {
      "op": "add_n", 
      "name": "res4b21", 
      "attrs": {"num_args": "2"}, 
      "inputs": [[731, 0, 0], [754, 0, 0]]
    }, 
    {
      "op": "Activation", 
      "name": "res4b21_relu", 
      "attrs": {"act_type": "relu"}, 
      "inputs": [[755, 0, 0]]
    }, 
    {
      "op": "null", 
      "name": "res4b22_branch2a_weight", 
      "attrs": {
        "dilate": "(1, 1)", 
        "kernel": "(1, 1)", 
        "no_bias": "True", 
        "num_filter": "256", 
        "pad": "(0, 0)", 
        "stride": "(1, 1)", 
        "workspace": "4096"
      }, 
      "inputs": []
    }, 
    {
      "op": "Convolution", 
      "name": "res4b22_branch2a", 
      "attrs": {
        "dilate": "(1, 1)", 
        "kernel": "(1, 1)", 
        "no_bias": "True", 
        "num_filter": "256", 
        "pad": "(0, 0)", 
        "stride": "(1, 1)", 
        "workspace": "4096"
      }, 
      "inputs": [[756, 0, 0], [757, 0, 0]]
    }, 
    {
      "op": "null", 
      "name": "bn4b22_branch2a_gamma", 
      "attrs": {
        "eps": "1e-06", 
        "fix_gamma": "False", 
        "momentum": "0.9995", 
        "use_global_stats": "True"
      }, 
      "inputs": []
    }, 
    {
      "op": "null", 
      "name": "bn4b22_branch2a_beta", 
      "attrs": {
        "eps": "1e-06", 
        "fix_gamma": "False", 
        "momentum": "0.9995", 
        "use_global_stats": "True"
      }, 
      "inputs": []
    }, 
    {
      "op": "null", 
      "name": "bn4b22_branch2a_moving_mean", 
      "attrs": {
        "__init__": "[\"zero\", {}]", 
        "eps": "1e-06", 
        "fix_gamma": "False", 
        "momentum": "0.9995", 
        "use_global_stats": "True"
      }, 
      "inputs": []
    }, 
    {
      "op": "null", 
      "name": "bn4b22_branch2a_moving_var", 
      "attrs": {
        "__init__": "[\"one\", {}]", 
        "eps": "1e-06", 
        "fix_gamma": "False", 
        "momentum": "0.9995", 
        "use_global_stats": "True"
      }, 
      "inputs": []
    }, 
    {
      "op": "BatchNorm", 
      "name": "bn4b22_branch2a", 
      "attrs": {
        "eps": "1e-06", 
        "fix_gamma": "False", 
        "momentum": "0.9995", 
        "use_global_stats": "True"
      }, 
      "inputs": [[758, 0, 0], [759, 0, 0], [760, 0, 0], [761, 0, 1], [762, 0, 1]]
    }, 
    {
      "op": "Activation", 
      "name": "res4b22_branch2a_relu", 
      "attrs": {"act_type": "relu"}, 
      "inputs": [[763, 0, 0]]
    }, 
    {
      "op": "null", 
      "name": "res4b22_branch2b_weight", 
      "attrs": {
        "dilate": "(5, 5)", 
        "kernel": "(3, 3)", 
        "no_bias": "True", 
        "num_filter": "256", 
        "pad": "(5, 5)", 
        "stride": "(1, 1)", 
        "workspace": "4096"
      }, 
      "inputs": []
    }, 
    {
      "op": "Convolution", 
      "name": "res4b22_branch2b", 
      "attrs": {
        "dilate": "(5, 5)", 
        "kernel": "(3, 3)", 
        "no_bias": "True", 
        "num_filter": "256", 
        "pad": "(5, 5)", 
        "stride": "(1, 1)", 
        "workspace": "4096"
      }, 
      "inputs": [[764, 0, 0], [765, 0, 0]]
    }, 
    {
      "op": "null", 
      "name": "bn4b22_branch2b_gamma", 
      "attrs": {
        "eps": "1e-06", 
        "fix_gamma": "False", 
        "momentum": "0.9995", 
        "use_global_stats": "True"
      }, 
      "inputs": []
    }, 
    {
      "op": "null", 
      "name": "bn4b22_branch2b_beta", 
      "attrs": {
        "eps": "1e-06", 
        "fix_gamma": "False", 
        "momentum": "0.9995", 
        "use_global_stats": "True"
      }, 
      "inputs": []
    }, 
    {
      "op": "null", 
      "name": "bn4b22_branch2b_moving_mean", 
      "attrs": {
        "__init__": "[\"zero\", {}]", 
        "eps": "1e-06", 
        "fix_gamma": "False", 
        "momentum": "0.9995", 
        "use_global_stats": "True"
      }, 
      "inputs": []
    }, 
    {
      "op": "null", 
      "name": "bn4b22_branch2b_moving_var", 
      "attrs": {
        "__init__": "[\"one\", {}]", 
        "eps": "1e-06", 
        "fix_gamma": "False", 
        "momentum": "0.9995", 
        "use_global_stats": "True"
      }, 
      "inputs": []
    }, 
    {
      "op": "BatchNorm", 
      "name": "bn4b22_branch2b", 
      "attrs": {
        "eps": "1e-06", 
        "fix_gamma": "False", 
        "momentum": "0.9995", 
        "use_global_stats": "True"
      }, 
      "inputs": [[766, 0, 0], [767, 0, 0], [768, 0, 0], [769, 0, 1], [770, 0, 1]]
    }, 
    {
      "op": "Activation", 
      "name": "res4b22_branch2b_relu", 
      "attrs": {"act_type": "relu"}, 
      "inputs": [[771, 0, 0]]
    }, 
    {
      "op": "null", 
      "name": "res4b22_branch2c_weight", 
      "attrs": {
        "dilate": "(1, 1)", 
        "kernel": "(1, 1)", 
        "no_bias": "True", 
        "num_filter": "1024", 
        "pad": "(0, 0)", 
        "stride": "(1, 1)", 
        "workspace": "4096"
      }, 
      "inputs": []
    }, 
    {
      "op": "Convolution", 
      "name": "res4b22_branch2c", 
      "attrs": {
        "dilate": "(1, 1)", 
        "kernel": "(1, 1)", 
        "no_bias": "True", 
        "num_filter": "1024", 
        "pad": "(0, 0)", 
        "stride": "(1, 1)", 
        "workspace": "4096"
      }, 
      "inputs": [[772, 0, 0], [773, 0, 0]]
    }, 
    {
      "op": "null", 
      "name": "bn4b22_branch2c_gamma", 
      "attrs": {
        "eps": "1e-06", 
        "fix_gamma": "False", 
        "momentum": "0.9995", 
        "use_global_stats": "True"
      }, 
      "inputs": []
    }, 
    {
      "op": "null", 
      "name": "bn4b22_branch2c_beta", 
      "attrs": {
        "eps": "1e-06", 
        "fix_gamma": "False", 
        "momentum": "0.9995", 
        "use_global_stats": "True"
      }, 
      "inputs": []
    }, 
    {
      "op": "null", 
      "name": "bn4b22_branch2c_moving_mean", 
      "attrs": {
        "__init__": "[\"zero\", {}]", 
        "eps": "1e-06", 
        "fix_gamma": "False", 
        "momentum": "0.9995", 
        "use_global_stats": "True"
      }, 
      "inputs": []
    }, 
    {
      "op": "null", 
      "name": "bn4b22_branch2c_moving_var", 
      "attrs": {
        "__init__": "[\"one\", {}]", 
        "eps": "1e-06", 
        "fix_gamma": "False", 
        "momentum": "0.9995", 
        "use_global_stats": "True"
      }, 
      "inputs": []
    }, 
    {
      "op": "BatchNorm", 
      "name": "bn4b22_branch2c", 
      "attrs": {
        "eps": "1e-06", 
        "fix_gamma": "False", 
        "momentum": "0.9995", 
        "use_global_stats": "True"
      }, 
      "inputs": [[774, 0, 0], [775, 0, 0], [776, 0, 0], [777, 0, 1], [778, 0, 1]]
    }, 
    {
      "op": "add_n", 
      "name": "res4b22", 
      "attrs": {"num_args": "2"}, 
      "inputs": [[756, 0, 0], [779, 0, 0]]
    }, 
    {
      "op": "Activation", 
      "name": "res4b22_relu", 
      "attrs": {"act_type": "relu"}, 
      "inputs": [[780, 0, 0]]
    }, 
    {
      "op": "null", 
      "name": "res5a_branch2a_weight", 
      "attrs": {
        "dilate": "(1, 1)", 
        "kernel": "(1, 1)", 
        "no_bias": "True", 
        "num_filter": "512", 
        "pad": "(0, 0)", 
        "stride": "(1, 1)", 
        "workspace": "4096"
      }, 
      "inputs": []
    }, 
    {
      "op": "Convolution", 
      "name": "res5a_branch2a", 
      "attrs": {
        "dilate": "(1, 1)", 
        "kernel": "(1, 1)", 
        "no_bias": "True", 
        "num_filter": "512", 
        "pad": "(0, 0)", 
        "stride": "(1, 1)", 
        "workspace": "4096"
      }, 
      "inputs": [[781, 0, 0], [782, 0, 0]]
    }, 
    {
      "op": "null", 
      "name": "bn5a_branch2a_gamma", 
      "attrs": {
        "eps": "1e-06", 
        "fix_gamma": "False", 
        "momentum": "0.9995", 
        "use_global_stats": "True"
      }, 
      "inputs": []
    }, 
    {
      "op": "null", 
      "name": "bn5a_branch2a_beta", 
      "attrs": {
        "eps": "1e-06", 
        "fix_gamma": "False", 
        "momentum": "0.9995", 
        "use_global_stats": "True"
      }, 
      "inputs": []
    }, 
    {
      "op": "null", 
      "name": "bn5a_branch2a_moving_mean", 
      "attrs": {
        "__init__": "[\"zero\", {}]", 
        "eps": "1e-06", 
        "fix_gamma": "False", 
        "momentum": "0.9995", 
        "use_global_stats": "True"
      }, 
      "inputs": []
    }, 
    {
      "op": "null", 
      "name": "bn5a_branch2a_moving_var", 
      "attrs": {
        "__init__": "[\"one\", {}]", 
        "eps": "1e-06", 
        "fix_gamma": "False", 
        "momentum": "0.9995", 
        "use_global_stats": "True"
      }, 
      "inputs": []
    }, 
    {
      "op": "BatchNorm", 
      "name": "bn5a_branch2a", 
      "attrs": {
        "eps": "1e-06", 
        "fix_gamma": "False", 
        "momentum": "0.9995", 
        "use_global_stats": "True"
      }, 
      "inputs": [[783, 0, 0], [784, 0, 0], [785, 0, 0], [786, 0, 1], [787, 0, 1]]
    }, 
    {
      "op": "Activation", 
      "name": "res5a_branch2a_relu", 
      "attrs": {"act_type": "relu"}, 
      "inputs": [[788, 0, 0]]
    }, 
    {
      "op": "null", 
      "name": "res5a_branch2b_weight", 
      "attrs": {
        "dilate": "(5, 5)", 
        "kernel": "(3, 3)", 
        "no_bias": "True", 
        "num_filter": "512", 
        "pad": "(5, 5)", 
        "stride": "(1, 1)", 
        "workspace": "4096"
      }, 
      "inputs": []
    }, 
    {
      "op": "Convolution", 
      "name": "res5a_branch2b", 
      "attrs": {
        "dilate": "(5, 5)", 
        "kernel": "(3, 3)", 
        "no_bias": "True", 
        "num_filter": "512", 
        "pad": "(5, 5)", 
        "stride": "(1, 1)", 
        "workspace": "4096"
      }, 
      "inputs": [[789, 0, 0], [790, 0, 0]]
    }, 
    {
      "op": "null", 
      "name": "bn5a_branch2b_gamma", 
      "attrs": {
        "eps": "1e-06", 
        "fix_gamma": "False", 
        "momentum": "0.9995", 
        "use_global_stats": "True"
      }, 
      "inputs": []
    }, 
    {
      "op": "null", 
      "name": "bn5a_branch2b_beta", 
      "attrs": {
        "eps": "1e-06", 
        "fix_gamma": "False", 
        "momentum": "0.9995", 
        "use_global_stats": "True"
      }, 
      "inputs": []
    }, 
    {
      "op": "null", 
      "name": "bn5a_branch2b_moving_mean", 
      "attrs": {
        "__init__": "[\"zero\", {}]", 
        "eps": "1e-06", 
        "fix_gamma": "False", 
        "momentum": "0.9995", 
        "use_global_stats": "True"
      }, 
      "inputs": []
    }, 
    {
      "op": "null", 
      "name": "bn5a_branch2b_moving_var", 
      "attrs": {
        "__init__": "[\"one\", {}]", 
        "eps": "1e-06", 
        "fix_gamma": "False", 
        "momentum": "0.9995", 
        "use_global_stats": "True"
      }, 
      "inputs": []
    }, 
    {
      "op": "BatchNorm", 
      "name": "bn5a_branch2b", 
      "attrs": {
        "eps": "1e-06", 
        "fix_gamma": "False", 
        "momentum": "0.9995", 
        "use_global_stats": "True"
      }, 
      "inputs": [[791, 0, 0], [792, 0, 0], [793, 0, 0], [794, 0, 1], [795, 0, 1]]
    }, 
    {
      "op": "Activation", 
      "name": "res5a_branch2b_relu", 
      "attrs": {"act_type": "relu"}, 
      "inputs": [[796, 0, 0]]
    }, 
    {
      "op": "null", 
      "name": "res5a_branch2c_weight", 
      "attrs": {
        "dilate": "(1, 1)", 
        "kernel": "(1, 1)", 
        "no_bias": "True", 
        "num_filter": "2048", 
        "pad": "(0, 0)", 
        "stride": "(1, 1)", 
        "workspace": "4096"
      }, 
      "inputs": []
    }, 
    {
      "op": "Convolution", 
      "name": "res5a_branch2c", 
      "attrs": {
        "dilate": "(1, 1)", 
        "kernel": "(1, 1)", 
        "no_bias": "True", 
        "num_filter": "2048", 
        "pad": "(0, 0)", 
        "stride": "(1, 1)", 
        "workspace": "4096"
      }, 
      "inputs": [[797, 0, 0], [798, 0, 0]]
    }, 
    {
      "op": "null", 
      "name": "bn5a_branch2c_gamma", 
      "attrs": {
        "eps": "1e-06", 
        "fix_gamma": "False", 
        "momentum": "0.9995", 
        "use_global_stats": "True"
      }, 
      "inputs": []
    }, 
    {
      "op": "null", 
      "name": "bn5a_branch2c_beta", 
      "attrs": {
        "eps": "1e-06", 
        "fix_gamma": "False", 
        "momentum": "0.9995", 
        "use_global_stats": "True"
      }, 
      "inputs": []
    }, 
    {
      "op": "null", 
      "name": "bn5a_branch2c_moving_mean", 
      "attrs": {
        "__init__": "[\"zero\", {}]", 
        "eps": "1e-06", 
        "fix_gamma": "False", 
        "momentum": "0.9995", 
        "use_global_stats": "True"
      }, 
      "inputs": []
    }, 
    {
      "op": "null", 
      "name": "bn5a_branch2c_moving_var", 
      "attrs": {
        "__init__": "[\"one\", {}]", 
        "eps": "1e-06", 
        "fix_gamma": "False", 
        "momentum": "0.9995", 
        "use_global_stats": "True"
      }, 
      "inputs": []
    }, 
    {
      "op": "BatchNorm", 
      "name": "bn5a_branch2c", 
      "attrs": {
        "eps": "1e-06", 
        "fix_gamma": "False", 
        "momentum": "0.9995", 
        "use_global_stats": "True"
      }, 
      "inputs": [[799, 0, 0], [800, 0, 0], [801, 0, 0], [802, 0, 1], [803, 0, 1]]
    }, 
    {
      "op": "null", 
      "name": "res5a_branch1_weight", 
      "attrs": {
        "dilate": "(1, 1)", 
        "kernel": "(1, 1)", 
        "no_bias": "True", 
        "num_filter": "2048", 
        "pad": "(0, 0)", 
        "stride": "(1, 1)", 
        "workspace": "4096"
      }, 
      "inputs": []
    }, 
    {
      "op": "Convolution", 
      "name": "res5a_branch1", 
      "attrs": {
        "dilate": "(1, 1)", 
        "kernel": "(1, 1)", 
        "no_bias": "True", 
        "num_filter": "2048", 
        "pad": "(0, 0)", 
        "stride": "(1, 1)", 
        "workspace": "4096"
      }, 
      "inputs": [[781, 0, 0], [805, 0, 0]]
    }, 
    {
      "op": "null", 
      "name": "bn5a_branch1_gamma", 
      "attrs": {
        "eps": "1e-06", 
        "fix_gamma": "False", 
        "momentum": "0.9995", 
        "use_global_stats": "True"
      }, 
      "inputs": []
    }, 
    {
      "op": "null", 
      "name": "bn5a_branch1_beta", 
      "attrs": {
        "eps": "1e-06", 
        "fix_gamma": "False", 
        "momentum": "0.9995", 
        "use_global_stats": "True"
      }, 
      "inputs": []
    }, 
    {
      "op": "null", 
      "name": "bn5a_branch1_moving_mean", 
      "attrs": {
        "__init__": "[\"zero\", {}]", 
        "eps": "1e-06", 
        "fix_gamma": "False", 
        "momentum": "0.9995", 
        "use_global_stats": "True"
      }, 
      "inputs": []
    }, 
    {
      "op": "null", 
      "name": "bn5a_branch1_moving_var", 
      "attrs": {
        "__init__": "[\"one\", {}]", 
        "eps": "1e-06", 
        "fix_gamma": "False", 
        "momentum": "0.9995", 
        "use_global_stats": "True"
      }, 
      "inputs": []
    }, 
    {
      "op": "BatchNorm", 
      "name": "bn5a_branch1", 
      "attrs": {
        "eps": "1e-06", 
        "fix_gamma": "False", 
        "momentum": "0.9995", 
        "use_global_stats": "True"
      }, 
      "inputs": [[806, 0, 0], [807, 0, 0], [808, 0, 0], [809, 0, 1], [810, 0, 1]]
    }, 
    {
      "op": "add_n", 
      "name": "res5a", 
      "attrs": {"num_args": "2"}, 
      "inputs": [[804, 0, 0], [811, 0, 0]]
    }, 
    {
      "op": "Activation", 
      "name": "res5a_relu", 
      "attrs": {"act_type": "relu"}, 
      "inputs": [[812, 0, 0]]
    }, 
    {
      "op": "null", 
      "name": "res5b_branch2a_weight", 
      "attrs": {
        "dilate": "(1, 1)", 
        "kernel": "(1, 1)", 
        "no_bias": "True", 
        "num_filter": "512", 
        "pad": "(0, 0)", 
        "stride": "(1, 1)", 
        "workspace": "4096"
      }, 
      "inputs": []
    }, 
    {
      "op": "Convolution", 
      "name": "res5b_branch2a", 
      "attrs": {
        "dilate": "(1, 1)", 
        "kernel": "(1, 1)", 
        "no_bias": "True", 
        "num_filter": "512", 
        "pad": "(0, 0)", 
        "stride": "(1, 1)", 
        "workspace": "4096"
      }, 
      "inputs": [[813, 0, 0], [814, 0, 0]]
    }, 
    {
      "op": "null", 
      "name": "bn5b_branch2a_gamma", 
      "attrs": {
        "eps": "1e-06", 
        "fix_gamma": "False", 
        "momentum": "0.9995", 
        "use_global_stats": "True"
      }, 
      "inputs": []
    }, 
    {
      "op": "null", 
      "name": "bn5b_branch2a_beta", 
      "attrs": {
        "eps": "1e-06", 
        "fix_gamma": "False", 
        "momentum": "0.9995", 
        "use_global_stats": "True"
      }, 
      "inputs": []
    }, 
    {
      "op": "null", 
      "name": "bn5b_branch2a_moving_mean", 
      "attrs": {
        "__init__": "[\"zero\", {}]", 
        "eps": "1e-06", 
        "fix_gamma": "False", 
        "momentum": "0.9995", 
        "use_global_stats": "True"
      }, 
      "inputs": []
    }, 
    {
      "op": "null", 
      "name": "bn5b_branch2a_moving_var", 
      "attrs": {
        "__init__": "[\"one\", {}]", 
        "eps": "1e-06", 
        "fix_gamma": "False", 
        "momentum": "0.9995", 
        "use_global_stats": "True"
      }, 
      "inputs": []
    }, 
    {
      "op": "BatchNorm", 
      "name": "bn5b_branch2a", 
      "attrs": {
        "eps": "1e-06", 
        "fix_gamma": "False", 
        "momentum": "0.9995", 
        "use_global_stats": "True"
      }, 
      "inputs": [[815, 0, 0], [816, 0, 0], [817, 0, 0], [818, 0, 1], [819, 0, 1]]
    }, 
    {
      "op": "Activation", 
      "name": "res5b_branch2a_relu", 
      "attrs": {"act_type": "relu"}, 
      "inputs": [[820, 0, 0]]
    }, 
    {
      "op": "null", 
      "name": "res5b_branch2b_weight", 
      "attrs": {
        "dilate": "(9, 9)", 
        "kernel": "(3, 3)", 
        "no_bias": "True", 
        "num_filter": "512", 
        "pad": "(9, 9)", 
        "stride": "(1, 1)", 
        "workspace": "4096"
      }, 
      "inputs": []
    }, 
    {
      "op": "Convolution", 
      "name": "res5b_branch2b", 
      "attrs": {
        "dilate": "(9, 9)", 
        "kernel": "(3, 3)", 
        "no_bias": "True", 
        "num_filter": "512", 
        "pad": "(9, 9)", 
        "stride": "(1, 1)", 
        "workspace": "4096"
      }, 
      "inputs": [[821, 0, 0], [822, 0, 0]]
    }, 
    {
      "op": "null", 
      "name": "bn5b_branch2b_gamma", 
      "attrs": {
        "eps": "1e-06", 
        "fix_gamma": "False", 
        "momentum": "0.9995", 
        "use_global_stats": "True"
      }, 
      "inputs": []
    }, 
    {
      "op": "null", 
      "name": "bn5b_branch2b_beta", 
      "attrs": {
        "eps": "1e-06", 
        "fix_gamma": "False", 
        "momentum": "0.9995", 
        "use_global_stats": "True"
      }, 
      "inputs": []
    }, 
    {
      "op": "null", 
      "name": "bn5b_branch2b_moving_mean", 
      "attrs": {
        "__init__": "[\"zero\", {}]", 
        "eps": "1e-06", 
        "fix_gamma": "False", 
        "momentum": "0.9995", 
        "use_global_stats": "True"
      }, 
      "inputs": []
    }, 
    {
      "op": "null", 
      "name": "bn5b_branch2b_moving_var", 
      "attrs": {
        "__init__": "[\"one\", {}]", 
        "eps": "1e-06", 
        "fix_gamma": "False", 
        "momentum": "0.9995", 
        "use_global_stats": "True"
      }, 
      "inputs": []
    }, 
    {
      "op": "BatchNorm", 
      "name": "bn5b_branch2b", 
      "attrs": {
        "eps": "1e-06", 
        "fix_gamma": "False", 
        "momentum": "0.9995", 
        "use_global_stats": "True"
      }, 
      "inputs": [[823, 0, 0], [824, 0, 0], [825, 0, 0], [826, 0, 1], [827, 0, 1]]
    }, 
    {
      "op": "Activation", 
      "name": "res5b_branch2b_relu", 
      "attrs": {"act_type": "relu"}, 
      "inputs": [[828, 0, 0]]
    }, 
    {
      "op": "null", 
      "name": "res5b_branch2c_weight", 
      "attrs": {
        "dilate": "(1, 1)", 
        "kernel": "(1, 1)", 
        "no_bias": "True", 
        "num_filter": "2048", 
        "pad": "(0, 0)", 
        "stride": "(1, 1)", 
        "workspace": "4096"
      }, 
      "inputs": []
    }, 
    {
      "op": "Convolution", 
      "name": "res5b_branch2c", 
      "attrs": {
        "dilate": "(1, 1)", 
        "kernel": "(1, 1)", 
        "no_bias": "True", 
        "num_filter": "2048", 
        "pad": "(0, 0)", 
        "stride": "(1, 1)", 
        "workspace": "4096"
      }, 
      "inputs": [[829, 0, 0], [830, 0, 0]]
    }, 
    {
      "op": "null", 
      "name": "bn5b_branch2c_gamma", 
      "attrs": {
        "eps": "1e-06", 
        "fix_gamma": "False", 
        "momentum": "0.9995", 
        "use_global_stats": "True"
      }, 
      "inputs": []
    }, 
    {
      "op": "null", 
      "name": "bn5b_branch2c_beta", 
      "attrs": {
        "eps": "1e-06", 
        "fix_gamma": "False", 
        "momentum": "0.9995", 
        "use_global_stats": "True"
      }, 
      "inputs": []
    }, 
    {
      "op": "null", 
      "name": "bn5b_branch2c_moving_mean", 
      "attrs": {
        "__init__": "[\"zero\", {}]", 
        "eps": "1e-06", 
        "fix_gamma": "False", 
        "momentum": "0.9995", 
        "use_global_stats": "True"
      }, 
      "inputs": []
    }, 
    {
      "op": "null", 
      "name": "bn5b_branch2c_moving_var", 
      "attrs": {
        "__init__": "[\"one\", {}]", 
        "eps": "1e-06", 
        "fix_gamma": "False", 
        "momentum": "0.9995", 
        "use_global_stats": "True"
      }, 
      "inputs": []
    }, 
    {
      "op": "BatchNorm", 
      "name": "bn5b_branch2c", 
      "attrs": {
        "eps": "1e-06", 
        "fix_gamma": "False", 
        "momentum": "0.9995", 
        "use_global_stats": "True"
      }, 
      "inputs": [[831, 0, 0], [832, 0, 0], [833, 0, 0], [834, 0, 1], [835, 0, 1]]
    }, 
    {
      "op": "add_n", 
      "name": "res5b", 
      "attrs": {"num_args": "2"}, 
      "inputs": [[813, 0, 0], [836, 0, 0]]
    }, 
    {
      "op": "Activation", 
      "name": "res5b_relu", 
      "attrs": {"act_type": "relu"}, 
      "inputs": [[837, 0, 0]]
    }, 
    {
      "op": "null", 
      "name": "res5c_branch2a_weight", 
      "attrs": {
        "dilate": "(1, 1)", 
        "kernel": "(1, 1)", 
        "no_bias": "True", 
        "num_filter": "512", 
        "pad": "(0, 0)", 
        "stride": "(1, 1)", 
        "workspace": "4096"
      }, 
      "inputs": []
    }, 
    {
      "op": "Convolution", 
      "name": "res5c_branch2a", 
      "attrs": {
        "dilate": "(1, 1)", 
        "kernel": "(1, 1)", 
        "no_bias": "True", 
        "num_filter": "512", 
        "pad": "(0, 0)", 
        "stride": "(1, 1)", 
        "workspace": "4096"
      }, 
      "inputs": [[838, 0, 0], [839, 0, 0]]
    }, 
    {
      "op": "null", 
      "name": "bn5c_branch2a_gamma", 
      "attrs": {
        "eps": "1e-06", 
        "fix_gamma": "False", 
        "momentum": "0.9995", 
        "use_global_stats": "True"
      }, 
      "inputs": []
    }, 
    {
      "op": "null", 
      "name": "bn5c_branch2a_beta", 
      "attrs": {
        "eps": "1e-06", 
        "fix_gamma": "False", 
        "momentum": "0.9995", 
        "use_global_stats": "True"
      }, 
      "inputs": []
    }, 
    {
      "op": "null", 
      "name": "bn5c_branch2a_moving_mean", 
      "attrs": {
        "__init__": "[\"zero\", {}]", 
        "eps": "1e-06", 
        "fix_gamma": "False", 
        "momentum": "0.9995", 
        "use_global_stats": "True"
      }, 
      "inputs": []
    }, 
    {
      "op": "null", 
      "name": "bn5c_branch2a_moving_var", 
      "attrs": {
        "__init__": "[\"one\", {}]", 
        "eps": "1e-06", 
        "fix_gamma": "False", 
        "momentum": "0.9995", 
        "use_global_stats": "True"
      }, 
      "inputs": []
    }, 
    {
      "op": "BatchNorm", 
      "name": "bn5c_branch2a", 
      "attrs": {
        "eps": "1e-06", 
        "fix_gamma": "False", 
        "momentum": "0.9995", 
        "use_global_stats": "True"
      }, 
      "inputs": [[840, 0, 0], [841, 0, 0], [842, 0, 0], [843, 0, 1], [844, 0, 1]]
    }, 
    {
      "op": "Activation", 
      "name": "res5c_branch2a_relu", 
      "attrs": {"act_type": "relu"}, 
      "inputs": [[845, 0, 0]]
    }, 
    {
      "op": "null", 
      "name": "res5c_branch2b_weight", 
      "attrs": {
        "dilate": "(17, 17)", 
        "kernel": "(3, 3)", 
        "no_bias": "True", 
        "num_filter": "512", 
        "pad": "(17, 17)", 
        "stride": "(1, 1)", 
        "workspace": "4096"
      }, 
      "inputs": []
    }, 
    {
      "op": "Convolution", 
      "name": "res5c_branch2b", 
      "attrs": {
        "dilate": "(17, 17)", 
        "kernel": "(3, 3)", 
        "no_bias": "True", 
        "num_filter": "512", 
        "pad": "(17, 17)", 
        "stride": "(1, 1)", 
        "workspace": "4096"
      }, 
      "inputs": [[846, 0, 0], [847, 0, 0]]
    }, 
    {
      "op": "null", 
      "name": "bn5c_branch2b_gamma", 
      "attrs": {
        "eps": "1e-06", 
        "fix_gamma": "False", 
        "momentum": "0.9995", 
        "use_global_stats": "True"
      }, 
      "inputs": []
    }, 
    {
      "op": "null", 
      "name": "bn5c_branch2b_beta", 
      "attrs": {
        "eps": "1e-06", 
        "fix_gamma": "False", 
        "momentum": "0.9995", 
        "use_global_stats": "True"
      }, 
      "inputs": []
    }, 
    {
      "op": "null", 
      "name": "bn5c_branch2b_moving_mean", 
      "attrs": {
        "__init__": "[\"zero\", {}]", 
        "eps": "1e-06", 
        "fix_gamma": "False", 
        "momentum": "0.9995", 
        "use_global_stats": "True"
      }, 
      "inputs": []
    }, 
    {
      "op": "null", 
      "name": "bn5c_branch2b_moving_var", 
      "attrs": {
        "__init__": "[\"one\", {}]", 
        "eps": "1e-06", 
        "fix_gamma": "False", 
        "momentum": "0.9995", 
        "use_global_stats": "True"
      }, 
      "inputs": []
    }, 
    {
      "op": "BatchNorm", 
      "name": "bn5c_branch2b", 
      "attrs": {
        "eps": "1e-06", 
        "fix_gamma": "False", 
        "momentum": "0.9995", 
        "use_global_stats": "True"
      }, 
      "inputs": [[848, 0, 0], [849, 0, 0], [850, 0, 0], [851, 0, 1], [852, 0, 1]]
    }, 
    {
      "op": "Activation", 
      "name": "res5c_branch2b_relu", 
      "attrs": {"act_type": "relu"}, 
      "inputs": [[853, 0, 0]]
    }, 
    {
      "op": "null", 
      "name": "res5c_branch2c_weight", 
      "attrs": {
        "dilate": "(1, 1)", 
        "kernel": "(1, 1)", 
        "no_bias": "True", 
        "num_filter": "2048", 
        "pad": "(0, 0)", 
        "stride": "(1, 1)", 
        "workspace": "4096"
      }, 
      "inputs": []
    }, 
    {
      "op": "Convolution", 
      "name": "res5c_branch2c", 
      "attrs": {
        "dilate": "(1, 1)", 
        "kernel": "(1, 1)", 
        "no_bias": "True", 
        "num_filter": "2048", 
        "pad": "(0, 0)", 
        "stride": "(1, 1)", 
        "workspace": "4096"
      }, 
      "inputs": [[854, 0, 0], [855, 0, 0]]
    }, 
    {
      "op": "null", 
      "name": "bn5c_branch2c_gamma", 
      "attrs": {
        "eps": "1e-06", 
        "fix_gamma": "False", 
        "momentum": "0.9995", 
        "use_global_stats": "True"
      }, 
      "inputs": []
    }, 
    {
      "op": "null", 
      "name": "bn5c_branch2c_beta", 
      "attrs": {
        "eps": "1e-06", 
        "fix_gamma": "False", 
        "momentum": "0.9995", 
        "use_global_stats": "True"
      }, 
      "inputs": []
    }, 
    {
      "op": "null", 
      "name": "bn5c_branch2c_moving_mean", 
      "attrs": {
        "__init__": "[\"zero\", {}]", 
        "eps": "1e-06", 
        "fix_gamma": "False", 
        "momentum": "0.9995", 
        "use_global_stats": "True"
      }, 
      "inputs": []
    }, 
    {
      "op": "null", 
      "name": "bn5c_branch2c_moving_var", 
      "attrs": {
        "__init__": "[\"one\", {}]", 
        "eps": "1e-06", 
        "fix_gamma": "False", 
        "momentum": "0.9995", 
        "use_global_stats": "True"
      }, 
      "inputs": []
    }, 
    {
      "op": "BatchNorm", 
      "name": "bn5c_branch2c", 
      "attrs": {
        "eps": "1e-06", 
        "fix_gamma": "False", 
        "momentum": "0.9995", 
        "use_global_stats": "True"
      }, 
      "inputs": [[856, 0, 0], [857, 0, 0], [858, 0, 0], [859, 0, 1], [860, 0, 1]]
    }, 
    {
      "op": "add_n", 
      "name": "res5c", 
      "attrs": {"num_args": "2"}, 
      "inputs": [[838, 0, 0], [861, 0, 0]]
    }, 
    {
      "op": "Activation", 
      "name": "res5c_relu", 
      "attrs": {"act_type": "relu"}, 
      "inputs": [[862, 0, 0]]
    }, 
    {
      "op": "null", 
      "name": "fc1_cityscapes_c0_weight", 
      "attrs": {
        "dilate": "(6, 6)", 
        "kernel": "(3, 3)", 
        "num_filter": "3", 
        "pad": "(6, 6)", 
        "workspace": "8192"
      }, 
      "inputs": []
    }, 
    {
      "op": "null", 
      "name": "fc1_cityscapes_c0_bias", 
      "attrs": {
        "dilate": "(6, 6)", 
        "kernel": "(3, 3)", 
        "num_filter": "3", 
        "pad": "(6, 6)", 
        "workspace": "8192"
      }, 
      "inputs": []
    }, 
    {
      "op": "Convolution", 
      "name": "fc1_cityscapes_c0", 
      "attrs": {
        "dilate": "(6, 6)", 
        "kernel": "(3, 3)", 
        "num_filter": "3", 
        "pad": "(6, 6)", 
        "workspace": "8192"
      }, 
      "inputs": [[863, 0, 0], [864, 0, 0], [865, 0, 0]]
    }, 
    {
      "op": "null", 
      "name": "fc1_cityscapes_c1_weight", 
      "attrs": {
        "dilate": "(12, 12)", 
        "kernel": "(3, 3)", 
        "num_filter": "3", 
        "pad": "(12, 12)", 
        "workspace": "8192"
      }, 
      "inputs": []
    }, 
    {
      "op": "null", 
      "name": "fc1_cityscapes_c1_bias", 
      "attrs": {
        "dilate": "(12, 12)", 
        "kernel": "(3, 3)", 
        "num_filter": "3", 
        "pad": "(12, 12)", 
        "workspace": "8192"
      }, 
      "inputs": []
    }, 
    {
      "op": "Convolution", 
      "name": "fc1_cityscapes_c1", 
      "attrs": {
        "dilate": "(12, 12)", 
        "kernel": "(3, 3)", 
        "num_filter": "3", 
        "pad": "(12, 12)", 
        "workspace": "8192"
      }, 
      "inputs": [[863, 0, 0], [867, 0, 0], [868, 0, 0]]
    }, 
    {
      "op": "null", 
      "name": "fc1_cityscapes_c2_weight", 
      "attrs": {
        "dilate": "(18, 18)", 
        "kernel": "(3, 3)", 
        "num_filter": "3", 
        "pad": "(18, 18)", 
        "workspace": "8192"
      }, 
      "inputs": []
    }, 
    {
      "op": "null", 
      "name": "fc1_cityscapes_c2_bias", 
      "attrs": {
        "dilate": "(18, 18)", 
        "kernel": "(3, 3)", 
        "num_filter": "3", 
        "pad": "(18, 18)", 
        "workspace": "8192"
      }, 
      "inputs": []
    }, 
    {
      "op": "Convolution", 
      "name": "fc1_cityscapes_c2", 
      "attrs": {
        "dilate": "(18, 18)", 
        "kernel": "(3, 3)", 
        "num_filter": "3", 
        "pad": "(18, 18)", 
        "workspace": "8192"
      }, 
      "inputs": [[863, 0, 0], [870, 0, 0], [871, 0, 0]]
    }, 
    {
      "op": "null", 
      "name": "fc1_cityscapes_c3_weight", 
      "attrs": {
        "dilate": "(24, 24)", 
        "kernel": "(3, 3)", 
        "num_filter": "3", 
        "pad": "(24, 24)", 
        "workspace": "8192"
      }, 
      "inputs": []
    }, 
    {
      "op": "null", 
      "name": "fc1_cityscapes_c3_bias", 
      "attrs": {
        "dilate": "(24, 24)", 
        "kernel": "(3, 3)", 
        "num_filter": "3", 
        "pad": "(24, 24)", 
        "workspace": "8192"
      }, 
      "inputs": []
    }, 
    {
      "op": "Convolution", 
      "name": "fc1_cityscapes_c3", 
      "attrs": {
        "dilate": "(24, 24)", 
        "kernel": "(3, 3)", 
        "num_filter": "3", 
        "pad": "(24, 24)", 
        "workspace": "8192"
      }, 
      "inputs": [[863, 0, 0], [873, 0, 0], [874, 0, 0]]
    }, 
    {
      "op": "add_n", 
      "name": "fc1_cityscapes", 
      "attrs": {"num_args": "4"}, 
      "inputs": [[866, 0, 0], [869, 0, 0], [872, 0, 0], [875, 0, 0]]
    }, 
    {
      "op": "Reshape", 
      "name": "cls_score_reshape", 
      "attrs": {"shape": "(0, 3, -1)"}, 
      "inputs": [[876, 0, 0]]
    }, 
    {
      "op": "null", 
      "name": "seg_loss_label", 
      "attrs": {
        "ignore_label": "3", 
        "multi_output": "True", 
        "normalization": "valid", 
        "use_ignore": "True"
      }, 
      "inputs": []
    }, 
    {
      "op": "SoftmaxOutput", 
      "name": "seg_loss", 
      "attrs": {
        "ignore_label": "3", 
        "multi_output": "True", 
        "normalization": "valid", 
        "use_ignore": "True"
      }, 
      "inputs": [[877, 0, 0], [878, 0, 0]]
    }
  ], 
  "arg_nodes": [
    0, 
    1, 
    3, 
    4, 
    5, 
    6, 
    11, 
    13, 
    14, 
    15, 
    16, 
    19, 
    21, 
    22, 
    23, 
    24, 
    27, 
    29, 
    30, 
    31, 
    32, 
    34, 
    36, 
    37, 
    38, 
    39, 
    43, 
    45, 
    46, 
    47, 
    48, 
    51, 
    53, 
    54, 
    55, 
    56, 
    59, 
    61, 
    62, 
    63, 
    64, 
    68, 
    70, 
    71, 
    72, 
    73, 
    76, 
    78, 
    79, 
    80, 
    81, 
    84, 
    86, 
    87, 
    88, 
    89, 
    93, 
    95, 
    96, 
    97, 
    98, 
    101, 
    103, 
    104, 
    105, 
    106, 
    109, 
    111, 
    112, 
    113, 
    114, 
    116, 
    118, 
    119, 
    120, 
    121, 
    125, 
    127, 
    128, 
    129, 
    130, 
    133, 
    135, 
    136, 
    137, 
    138, 
    141, 
    143, 
    144, 
    145, 
    146, 
    150, 
    152, 
    153, 
    154, 
    155, 
    158, 
    160, 
    161, 
    162, 
    163, 
    166, 
    168, 
    169, 
    170, 
    171, 
    175, 
    177, 
    178, 
    179, 
    180, 
    183, 
    185, 
    186, 
    187, 
    188, 
    191, 
    193, 
    194, 
    195, 
    196, 
    200, 
    202, 
    203, 
    204, 
    205, 
    208, 
    210, 
    211, 
    212, 
    213, 
    216, 
    218, 
    219, 
    220, 
    221, 
    223, 
    225, 
    226, 
    227, 
    228, 
    232, 
    234, 
    235, 
    236, 
    237, 
    240, 
    242, 
    243, 
    244, 
    245, 
    248, 
    250, 
    251, 
    252, 
    253, 
    257, 
    259, 
    260, 
    261, 
    262, 
    265, 
    267, 
    268, 
    269, 
    270, 
    273, 
    275, 
    276, 
    277, 
    278, 
    282, 
    284, 
    285, 
    286, 
    287, 
    290, 
    292, 
    293, 
    294, 
    295, 
    298, 
    300, 
    301, 
    302, 
    303, 
    307, 
    309, 
    310, 
    311, 
    312, 
    315, 
    317, 
    318, 
    319, 
    320, 
    323, 
    325, 
    326, 
    327, 
    328, 
    332, 
    334, 
    335, 
    336, 
    337, 
    340, 
    342, 
    343, 
    344, 
    345, 
    348, 
    350, 
    351, 
    352, 
    353, 
    357, 
    359, 
    360, 
    361, 
    362, 
    365, 
    367, 
    368, 
    369, 
    370, 
    373, 
    375, 
    376, 
    377, 
    378, 
    382, 
    384, 
    385, 
    386, 
    387, 
    390, 
    392, 
    393, 
    394, 
    395, 
    398, 
    400, 
    401, 
    402, 
    403, 
    407, 
    409, 
    410, 
    411, 
    412, 
    415, 
    417, 
    418, 
    419, 
    420, 
    423, 
    425, 
    426, 
    427, 
    428, 
    432, 
    434, 
    435, 
    436, 
    437, 
    440, 
    442, 
    443, 
    444, 
    445, 
    448, 
    450, 
    451, 
    452, 
    453, 
    457, 
    459, 
    460, 
    461, 
    462, 
    465, 
    467, 
    468, 
    469, 
    470, 
    473, 
    475, 
    476, 
    477, 
    478, 
    482, 
    484, 
    485, 
    486, 
    487, 
    490, 
    492, 
    493, 
    494, 
    495, 
    498, 
    500, 
    501, 
    502, 
    503, 
    507, 
    509, 
    510, 
    511, 
    512, 
    515, 
    517, 
    518, 
    519, 
    520, 
    523, 
    525, 
    526, 
    527, 
    528, 
    532, 
    534, 
    535, 
    536, 
    537, 
    540, 
    542, 
    543, 
    544, 
    545, 
    548, 
    550, 
    551, 
    552, 
    553, 
    557, 
    559, 
    560, 
    561, 
    562, 
    565, 
    567, 
    568, 
    569, 
    570, 
    573, 
    575, 
    576, 
    577, 
    578, 
    582, 
    584, 
    585, 
    586, 
    587, 
    590, 
    592, 
    593, 
    594, 
    595, 
    598, 
    600, 
    601, 
    602, 
    603, 
    607, 
    609, 
    610, 
    611, 
    612, 
    615, 
    617, 
    618, 
    619, 
    620, 
    623, 
    625, 
    626, 
    627, 
    628, 
    632, 
    634, 
    635, 
    636, 
    637, 
    640, 
    642, 
    643, 
    644, 
    645, 
    648, 
    650, 
    651, 
    652, 
    653, 
    657, 
    659, 
    660, 
    661, 
    662, 
    665, 
    667, 
    668, 
    669, 
    670, 
    673, 
    675, 
    676, 
    677, 
    678, 
    682, 
    684, 
    685, 
    686, 
    687, 
    690, 
    692, 
    693, 
    694, 
    695, 
    698, 
    700, 
    701, 
    702, 
    703, 
    707, 
    709, 
    710, 
    711, 
    712, 
    715, 
    717, 
    718, 
    719, 
    720, 
    723, 
    725, 
    726, 
    727, 
    728, 
    732, 
    734, 
    735, 
    736, 
    737, 
    740, 
    742, 
    743, 
    744, 
    745, 
    748, 
    750, 
    751, 
    752, 
    753, 
    757, 
    759, 
    760, 
    761, 
    762, 
    765, 
    767, 
    768, 
    769, 
    770, 
    773, 
    775, 
    776, 
    777, 
    778, 
    782, 
    784, 
    785, 
    786, 
    787, 
    790, 
    792, 
    793, 
    794, 
    795, 
    798, 
    800, 
    801, 
    802, 
    803, 
    805, 
    807, 
    808, 
    809, 
    810, 
    814, 
    816, 
    817, 
    818, 
    819, 
    822, 
    824, 
    825, 
    826, 
    827, 
    830, 
    832, 
    833, 
    834, 
    835, 
    839, 
    841, 
    842, 
    843, 
    844, 
    847, 
    849, 
    850, 
    851, 
    852, 
    855, 
    857, 
    858, 
    859, 
    860, 
    864, 
    865, 
    867, 
    868, 
    870, 
    871, 
    873, 
    874, 
    878
  ], 
  "node_row_ptr": [
    0, 
    1, 
    2, 
    3, 
    4, 
    5, 
    6, 
    7, 
    10, 
    11, 
    12, 
    13, 
    14, 
    15, 
    16, 
    17, 
    18, 
    19, 
    22, 
    23, 
    24, 
    25, 
    26, 
    27, 
    28, 
    29, 
    32, 
    33, 
    34, 
    35, 
    36, 
    37, 
    38, 
    39, 
    42, 
    43, 
    44, 
    45, 
    46, 
    47, 
    48, 
    51, 
    52, 
    53, 
    54, 
    55, 
    56, 
    57, 
    58, 
    59, 
    62, 
    63, 
    64, 
    65, 
    66, 
    67, 
    68, 
    69, 
    72, 
    73, 
    74, 
    75, 
    76, 
    77, 
    78, 
    79, 
    82, 
    83, 
    84, 
    85, 
    86, 
    87, 
    88, 
    89, 
    90, 
    93, 
    94, 
    95, 
    96, 
    97, 
    98, 
    99, 
    100, 
    103, 
    104, 
    105, 
    106, 
    107, 
    108, 
    109, 
    110, 
    113, 
    114, 
    115, 
    116, 
    117, 
    118, 
    119, 
    120, 
    121, 
    124, 
    125, 
    126, 
    127, 
    128, 
    129, 
    130, 
    131, 
    134, 
    135, 
    136, 
    137, 
    138, 
    139, 
    140, 
    141, 
    144, 
    145, 
    146, 
    147, 
    148, 
    149, 
    150, 
    153, 
    154, 
    155, 
    156, 
    157, 
    158, 
    159, 
    160, 
    161, 
    164, 
    165, 
    166, 
    167, 
    168, 
    169, 
    170, 
    171, 
    174, 
    175, 
    176, 
    177, 
    178, 
    179, 
    180, 
    181, 
    184, 
    185, 
    186, 
    187, 
    188, 
    189, 
    190, 
    191, 
    192, 
    195, 
    196, 
    197, 
    198, 
    199, 
    200, 
    201, 
    202, 
    205, 
    206, 
    207, 
    208, 
    209, 
    210, 
    211, 
    212, 
    215, 
    216, 
    217, 
    218, 
    219, 
    220, 
    221, 
    222, 
    223, 
    226, 
    227, 
    228, 
    229, 
    230, 
    231, 
    232, 
    233, 
    236, 
    237, 
    238, 
    239, 
    240, 
    241, 
    242, 
    243, 
    246, 
    247, 
    248, 
    249, 
    250, 
    251, 
    252, 
    253, 
    254, 
    257, 
    258, 
    259, 
    260, 
    261, 
    262, 
    263, 
    264, 
    267, 
    268, 
    269, 
    270, 
    271, 
    272, 
    273, 
    274, 
    277, 
    278, 
    279, 
    280, 
    281, 
    282, 
    283, 
    286, 
    287, 
    288, 
    289, 
    290, 
    291, 
    292, 
    293, 
    294, 
    297, 
    298, 
    299, 
    300, 
    301, 
    302, 
    303, 
    304, 
    307, 
    308, 
    309, 
    310, 
    311, 
    312, 
    313, 
    314, 
    317, 
    318, 
    319, 
    320, 
    321, 
    322, 
    323, 
    324, 
    325, 
    328, 
    329, 
    330, 
    331, 
    332, 
    333, 
    334, 
    335, 
    338, 
    339, 
    340, 
    341, 
    342, 
    343, 
    344, 
    345, 
    348, 
    349, 
    350, 
    351, 
    352, 
    353, 
    354, 
    355, 
    356, 
    359, 
    360, 
    361, 
    362, 
    363, 
    364, 
    365, 
    366, 
    369, 
    370, 
    371, 
    372, 
    373, 
    374, 
    375, 
    376, 
    379, 
    380, 
    381, 
    382, 
    383, 
    384, 
    385, 
    386, 
    387, 
    390, 
    391, 
    392, 
    393, 
    394, 
    395, 
    396, 
    397, 
    400, 
    401, 
    402, 
    403, 
    404, 
    405, 
    406, 
    407, 
    410, 
    411, 
    412, 
    413, 
    414, 
    415, 
    416, 
    417, 
    418, 
    421, 
    422, 
    423, 
    424, 
    425, 
    426, 
    427, 
    428, 
    431, 
    432, 
    433, 
    434, 
    435, 
    436, 
    437, 
    438, 
    441, 
    442, 
    443, 
    444, 
    445, 
    446, 
    447, 
    448, 
    449, 
    452, 
    453, 
    454, 
    455, 
    456, 
    457, 
    458, 
    459, 
    462, 
    463, 
    464, 
    465, 
    466, 
    467, 
    468, 
    469, 
    472, 
    473, 
    474, 
    475, 
    476, 
    477, 
    478, 
    479, 
    480, 
    483, 
    484, 
    485, 
    486, 
    487, 
    488, 
    489, 
    490, 
    493, 
    494, 
    495, 
    496, 
    497, 
    498, 
    499, 
    500, 
    503, 
    504, 
    505, 
    506, 
    507, 
    508, 
    509, 
    510, 
    511, 
    514, 
    515, 
    516, 
    517, 
    518, 
    519, 
    520, 
    521, 
    524, 
    525, 
    526, 
    527, 
    528, 
    529, 
    530, 
    531, 
    534, 
    535, 
    536, 
    537, 
    538, 
    539, 
    540, 
    541, 
    542, 
    545, 
    546, 
    547, 
    548, 
    549, 
    550, 
    551, 
    552, 
    555, 
    556, 
    557, 
    558, 
    559, 
    560, 
    561, 
    562, 
    565, 
    566, 
    567, 
    568, 
    569, 
    570, 
    571, 
    572, 
    573, 
    576, 
    577, 
    578, 
    579, 
    580, 
    581, 
    582, 
    583, 
    586, 
    587, 
    588, 
    589, 
    590, 
    591, 
    592, 
    593, 
    596, 
    597, 
    598, 
    599, 
    600, 
    601, 
    602, 
    603, 
    604, 
    607, 
    608, 
    609, 
    610, 
    611, 
    612, 
    613, 
    614, 
    617, 
    618, 
    619, 
    620, 
    621, 
    622, 
    623, 
    624, 
    627, 
    628, 
    629, 
    630, 
    631, 
    632, 
    633, 
    634, 
    635, 
    638, 
    639, 
    640, 
    641, 
    642, 
    643, 
    644, 
    645, 
    648, 
    649, 
    650, 
    651, 
    652, 
    653, 
    654, 
    655, 
    658, 
    659, 
    660, 
    661, 
    662, 
    663, 
    664, 
    665, 
    666, 
    669, 
    670, 
    671, 
    672, 
    673, 
    674, 
    675, 
    676, 
    679, 
    680, 
    681, 
    682, 
    683, 
    684, 
    685, 
    686, 
    689, 
    690, 
    691, 
    692, 
    693, 
    694, 
    695, 
    696, 
    697, 
    700, 
    701, 
    702, 
    703, 
    704, 
    705, 
    706, 
    707, 
    710, 
    711, 
    712, 
    713, 
    714, 
    715, 
    716, 
    717, 
    720, 
    721, 
    722, 
    723, 
    724, 
    725, 
    726, 
    727, 
    728, 
    731, 
    732, 
    733, 
    734, 
    735, 
    736, 
    737, 
    738, 
    741, 
    742, 
    743, 
    744, 
    745, 
    746, 
    747, 
    748, 
    751, 
    752, 
    753, 
    754, 
    755, 
    756, 
    757, 
    758, 
    759, 
    762, 
    763, 
    764, 
    765, 
    766, 
    767, 
    768, 
    769, 
    772, 
    773, 
    774, 
    775, 
    776, 
    777, 
    778, 
    779, 
    782, 
    783, 
    784, 
    785, 
    786, 
    787, 
    788, 
    789, 
    790, 
    793, 
    794, 
    795, 
    796, 
    797, 
    798, 
    799, 
    800, 
    803, 
    804, 
    805, 
    806, 
    807, 
    808, 
    809, 
    810, 
    813, 
    814, 
    815, 
    816, 
    817, 
    818, 
    819, 
    820, 
    821, 
    824, 
    825, 
    826, 
    827, 
    828, 
    829, 
    830, 
    831, 
    834, 
    835, 
    836, 
    837, 
    838, 
    839, 
    840, 
    841, 
    844, 
    845, 
    846, 
    847, 
    848, 
    849, 
    850, 
    851, 
    852, 
    855, 
    856, 
    857, 
    858, 
    859, 
    860, 
    861, 
    862, 
    865, 
    866, 
    867, 
    868, 
    869, 
    870, 
    871, 
    872, 
    875, 
    876, 
    877, 
    878, 
    879, 
    880, 
    881, 
    882, 
    883, 
    886, 
    887, 
    888, 
    889, 
    890, 
    891, 
    892, 
    893, 
    896, 
    897, 
    898, 
    899, 
    900, 
    901, 
    902, 
    903, 
    906, 
    907, 
    908, 
    909, 
    910, 
    911, 
    912, 
    913, 
    914, 
    917, 
    918, 
    919, 
    920, 
    921, 
    922, 
    923, 
    924, 
    927, 
    928, 
    929, 
    930, 
    931, 
    932, 
    933, 
    934, 
    937, 
    938, 
    939, 
    940, 
    941, 
    942, 
    943, 
    944, 
    945, 
    948, 
    949, 
    950, 
    951, 
    952, 
    953, 
    954, 
    955, 
    958, 
    959, 
    960, 
    961, 
    962, 
    963, 
    964, 
    965, 
    968, 
    969, 
    970, 
    971, 
    972, 
    973, 
    974, 
    975, 
    976, 
    979, 
    980, 
    981, 
    982, 
    983, 
    984, 
    985, 
    986, 
    989, 
    990, 
    991, 
    992, 
    993, 
    994, 
    995, 
    996, 
    999, 
    1000, 
    1001, 
    1002, 
    1003, 
    1004, 
    1005, 
    1008, 
    1009, 
    1010, 
    1011, 
    1012, 
    1013, 
    1014, 
    1015, 
    1016, 
    1019, 
    1020, 
    1021, 
    1022, 
    1023, 
    1024, 
    1025, 
    1026, 
    1029, 
    1030, 
    1031, 
    1032, 
    1033, 
    1034, 
    1035, 
    1036, 
    1039, 
    1040, 
    1041, 
    1042, 
    1043, 
    1044, 
    1045, 
    1046, 
    1047, 
    1050, 
    1051, 
    1052, 
    1053, 
    1054, 
    1055, 
    1056, 
    1057, 
    1060, 
    1061, 
    1062, 
    1063, 
    1064, 
    1065, 
    1066, 
    1067, 
    1070, 
    1071, 
    1072, 
    1073, 
    1074, 
    1075, 
    1076, 
    1077, 
    1078, 
    1079, 
    1080, 
    1081, 
    1082, 
    1083, 
    1084, 
    1085, 
    1086, 
    1087, 
    1088
  ], 
  "heads": [[879, 0, 0]], 
  "attrs": {"mxnet_version": ["int", 10000]}
}